LSTM_v2/best_model_features.pth (torch, 75456 bytes, 6 tensors)

lstm.weight_ih_l0 f4 [256, 4]
00000000: e0e0 283e a3b4 ef3d 5019 0f3e 9dd3 77bd
00000010: 83e9 293e 1d1a 4e3e 023b 9cbd 03a3 cf3d
00000020: f27e 9b3d f18a 1e3e cd7a 04be 211f 21bd
00000030: 9ca6 66bd 99e3 463b ac24 863d 062f bcbd
00000040: fc5a 093e 19bc 1ebd e063 91bd c661 37bd
00000050: f27d c5bd 575b ea3d 46d4 0ebd fcc6 193d
00000060: 64ca 2bbd 84fa 203e a1ef abbc 66d9 5cbd
00000070: c73c 89bd c2d8 af3c f2a9 0f3d 9746 8ebd
00000080: ab8a ff3d dfa2 923d 1eb0 56bc 311c 99bb
00000090: a07e 9cbd 7f22 043e 532d 0a3a 1067 063e
000000a0: 2e3b 313e f7eb 3a3e dd31 26bd 68a4 58bd
000000b0: 7204 9fbd 905c 62bd 125e 24bd 603e 04be
000000c0: 713c 8e3d 1c6f 1d3e 33da 963d c320 c1bd
000000d0: a8f6 183d 303c 3c3d 6bd1 bf3d e832 a33d
000000e0: 3ea3 8f3d 1e05 143e 6b94 3bbd cab1 62bd
000000f0: 983c 8e3d ae52 0abd e0d1 1cbe c69d 583d
00000100: 80cd 8d3d 07a5 32bd 7ac7 1f3e b985 41bd
00000110: d7ff cd3d 60d8 3abd 50c8 35bd 1303 a03d
00000120: fac3 36bd d845 e7bd 785c 65bd 5c3f cbbd
00000130: a8c9 533e eb2a 0b3e ed35 943d 4c35 413e
00000140: 65d5 953d 20ac 853d e6ea cebd b8f4 d03d
00000150: ca3a 0b3c ea88 1fbd 24c3 d73c f27b c13d
00000160: 2fc2 dfbc 2cfb 5d3d 2809 2fbd 9e10 6b3d
00000170: 5d13 183e b4c5 73ba 921b 1e3e 28fb b3bd
00000180: 2956 013e 0b3e 1f3d 0140 52bc 1d9e c2bc
00000190: 22c0 a83c 0d07 c93d aea9 cfbc 98d7 34bd
000001a0: 5bd8 c73d 5fd6 893d 1f28 e13c 5fc0 e43d
000001b0: cbb7 ac3d 0d8c a43d 7a90 843d 7772 6abb
000001c0: 7ca3 b13d 4428 c73d 53f3 8abd 1eaf 7bbd
000001d0: 546b a0bd 3217 1cbc 6188 40bd 16cf d93d
000001e0: 6f88 103e 064d 09bd 22d1 2ebd b52f 33bd
000001f0: 009b 983c 1a61 a33d 0441 99bd 134f ff3d
00000200: 2a85 2a3d c8ed fdbc a2be 253e 80a7 313e
00000210: 023b a0bd ef72 a2bd c741 07bd 4f38 683d
00000220: fa94 a0bc 8001 633c 23c6 a53d b267 c0bd
00000230: cc89 a8bc 0cd9 0dbe ba12 3b3e 7e05 463e
00000240: 6496 953d 5784 29bd 645c 493d fb5b 02bd
00000250: ee99 97bd 9920 c13b d3a6 f93b c154 dabd
00000260: a37a 863e 7876 463d fa54 603e dc38 433d
00000270: 5523 02be d9cf 0dbe 3bbb 633c 1617 01bd
00000280: ae90 e13c d789 15bd 895e adbd b67b 8f3d
00000290: a4cf acbd 3677 e9bd 2ced ce3d 8eb1 203e
000002a0: 1e85 0fbd 0b99 553c dd33 d03c 8a74 023e
000002b0: 2d88 9dbc d037 dfbd 72a4 b9bd 1c6a 973d
000002c0: ba25 573d d7ef be3d 7e66 5ebc fe1b 983c
000002d0: 732c 933d 82cb 463e bed6 dabd 3cad 613d
000002e0: 8cd6 7abc c267 623c 5e88 a23c 7099 503c
000002f0: 9a80 56bd 26cd a53c f6ab 85bd 6466 22bd
00000300: bdcf 093e e946 90bd 15f0 f7bc 32a2 96bd
00000310: bb74 003d f35c e53d 034e c83d 4a4b 1cbd
00000320: 2b90 843d 52f2 86bd e781 083e caf4 703d
00000330: dcfc 823d b462 2c3e 1b5e 9c3b 9f36 ab3c
00000340: a73e 013e de9e 49bd 96e0 963d 58db 863d
00000350: 2259 b33d c773 c73d bd07 0c3e 7401 073e
00000360: bde4 533d 8513 123e e58f cdbd 2fbd b63b
00000370: bb81 a43d 2735 5abd a54a 173e 6300 c13c
00000380: e5de e13d 89f8 953e 160c 083d 9f13 df3c
00000390: bd5b 133d 1175 94bd 4fb0 07be 5b77 d33c
000003a0: 752d 1d3d aee9 76bc 6cde b63d f3ab 86bd
000003b0: f501 933c ff65 653d 4490 d7bc 5d53 263e
000003c0: 7514 c63d 8e3f 713e 42cf 3b3d 11d4 1e3d
000003d0: 3521 083e b762 2a3e 7616 f03d 8e26 403e
000003e0: 5cb2 02bd de7c d6bd 0436 cd3d d5d7 dc3c
000003f0: db82 973b cbf5 3c3c 469b 2ebc d93f 19bd
0.16492033 0.117043756 0.139745 -0.060504545 0.16592984 0.20127149 -0.07628442 0.10138514
0.07592572 0.1548269 -0.1293747 -0.039336327 -0.056311235 0.003034806 0.06549963 -0.091886565
0.13413614 -0.038753603 -0.07099128 -0.04477098 -0.09643163 0.11443203 -0.03487041 0.037543282
-0.04194106 0.15720564 -0.020988287 -0.053918265 -0.067010455 0.021465663 0.03507418 -0.06947058
0.12477621 0.071599714 -0.013103513 -0.00467255 -0.07641339 0.12903784 0.0005271036 0.13125253
0.17307732 0.18254076 -0.040574897 -0.052891165 -0.0776452 -0.055264056 -0.040128775 -0.12914419
0.06945122 0.15374416 0.07365837 -0.09430077 0.037344605 0.045955837 0.09366115 0.07968694
0.07013558 0.14455077 -0.04579584 -0.055345334 0.06945151 -0.033770256 -0.15314436 0.05288484
0.06923962 -0.043614414 0.15603438 -0.04724667 0.10058563 -0.045616508 -0.044380486 0.07813086
-0.04462049 -0.112926185 -0.05599639 -0.09924194 0.20682395 0.1359059 0.07236848 0.18867987
0.073160924 0.06526971 -0.10103397 0.102029264 0.008497903 -0.03894893 0.026338167 0.09447469
-0.027314274 0.054194614 -0.04273334 0.057388894 0.14851137 -0.00092991744 0.15440205 -0.08788139
0.12630524 0.03887753 -0.0128326425 -0.023757035 0.020599429 0.09815798 -0.025349464 -0.04415092
0.097580634 0.06730341 0.027484952 0.111695044 0.08433493 0.08034525 0.06472869 -0.0035773793
0.0867376 0.09724477 -0.06784692 -0.0614463 -0.07832971 -0.009527015 -0.04700506 0.10635202
0.14114545 -0.03352072 -0.042679913 -0.04374667 0.018628597 0.07977505 -0.07483104 0.12466254
0.0416309 -0.030997172 0.16186002 0.17349052 -0.07823755 -0.07932078 -0.033021715 0.056694325
-0.019602288 0.013855338 0.08094432 -0.09394778 -0.02057352 -0.13852328 0.18268862 0.19338033
0.07304075 -0.041385975 0.049160376 -0.031826 -0.07402407 0.0058937785 0.007618764 -0.10660697
0.2626544 0.048452824 0.21907416 0.047661647 -0.1270879 -0.13848819 0.01389962 -0.031516157
0.027534809 -0.036508407 -0.08465297 0.07006018 -0.08438042 -0.11399691 0.10103831 0.15692732
-0.03503906 0.013036977 0.025415355 0.12739769 -0.019229973 -0.10899317 -0.090645686 0.07393286
0.052526213 0.093230896 -0.013574241 0.018568035 0.071862124 0.1941357 -0.1068549 0.05509685
-0.015309941 0.013818683 0.019840416 0.012731895 -0.052368738 0.020239424 -0.065269396 -0.03964843
0.13458152 -0.07044775 -0.030265847 -0.07355155 0.031361323 0.11199369 0.097805046 -0.03815774
0.0647281 -0.06589188 0.13330804 0.0588272 0.06395885 0.16834527 0.0047719604 0.020900069
0.12621556 -0.049223773 0.07367055 0.06584805 0.08757235 0.0973888 0.13674827 0.13184148
0.051731814 0.14265259 -0.10037211 0.0055767517 0.080325566 -0.053273346 0.14774568 0.023559755
0.11028842 0.2929118 0.03321465 0.027231036 0.03597616 -0.07248891 -0.1325085 0.025813749
0.03837343 -0.015070362 0.08929142 -0.065757655 0.01794527 0.056005474 -0.026313908 0.16242738
0.096718706 0.235594 0.045851953 0.03877646 0.13293917 0.16639219 0.11723034 0.18764707
-0.031908378 -0.10473035 0.10020068 0.026958385 0.0046237535 0.011533211 -0.010657137 -0.037414405

lstm.weight_hh_l0 f4 [256, 64]
00000000: a7e6 b7bc ccf8 a4bd 0bce c63c d75f bdbd
00000010: 3b57 66bd f974 a9bd 2f5c 4a3d 0254 ce3d
00000020: 88c5 213d b8c9 a6bd 357c ecbd 52a2 64bd
00000030: 2d41 bf39 c3d1 c0bb e4b3 67bb 2989 143d
00000040: 38ac b13d eabc d73c 4d25 d3bd 4316 8cbd
00000050: a46c cdbd bb16 39bc 77b5 d2bd ac4c d93d
00000060: 9ddf 68bd f004 ba3d f06c ac3d cf32 f53c
00000070: 58c2 c2bd 994f 0a3d ef90 023d 7d02 0abd
00000080: e219 cdbd 72de c63d ea2a 9c3d fd15 bf3d
00000090: 69cc d83c 6262 68bd 0ae9 bb3c 7371 b4bd
000000a0: 402c b03b 9b7c 9f3d 61ae ebbd 410b 7f3d
000000b0: c2a2 89bd 9c57 d5bd d622 783d b2a8 e6bd
000000c0: d9e2 fdbd ca7d e0bd e350 903d c901 dd3d
000000d0: e448 803d ab44 0cbc bf57 0c3d ce48 74bc
000000e0: f2c8 233d d4d5 d83c 5990 debc 020b 0b3c
000000f0: 5dfb 5e3d 512e 3f3d ad83 fabd 3123 683d
00000100: 6640 67bd 8c95 e53d 804b 783d 99a9 9aba
00000110: 129b 2dbd 49da 9bbd e053 efbc 4173 77bd
00000120: ff7f cbbd 77d9 c53d 4eac a23d 5452 00be
00000130: 936c b03c ed26 fd3b 4a86 07be 2d92 783d
00000140: f325 cc3a d71b 58bc 64cc 12be 952f d2bd
00000150: 7e08 5b3d 5509 1bbd 6e44 173d 3c73 c3bd
00000160: 14b6 c33d 5928 863d 1838 d33d 5088 e73d
00000170: b2b4 bcbd 50be 82bd a98f 00bd 22d4 053e
00000180: 7bfe e2bc 5fb3 583d d65e 0cbc 7de2 bc3d
00000190: e982 d5bd 28f1 d33d d9ef dbbd 839f 27be
000001a0: 3fc2 913d ea2b 973d 555b 5fbd 63d1 e0bd
000001b0: 5ceb 4a3d 2f61 9bbd c9cb c1bd 82d5 0c3d
000001c0: bb2a 7e3d c94d a03d ee4e bdbd 5473 6a3d
000001d0: 26c2 d8bc c9d1 87bc cdb8 c0bd 1dc9 73bc
000001e0: 64bd 723e bb5e 1cbc 21d0 db3d 61e2 c53d
000001f0: d67f 63bc f2e7 90bb 18eb ba3d e7a5 3cbd
00000200: fcf5 763d e6bd 9abd db73 683c 3025 e1bd
00000210: 8493 ea3d 49c6 d1bd 4f52 953b 22a9 e13c
00000220: 617a a13c c246 01be 1c02 a3bd ec48 96bd
00000230: e153 42bd cdf7 e0bd ca88 8ebd dc79 103d
00000240: edf1 383d 998f d3bd 9c2b 04bd 80be d4bd
00000250: f6e6 52bc dc90 7abc c0a4 0fbd ce5d a93d
00000260: c2cc f03d 8c16 a53d 7a66 efbc bd05 eebd
00000270: 3be3 083e a39e 7cbd 3a0f d3bd afc4 f7bc
00000280: c872 5dbd a466 043e d05f 07be ad03 2c3d
00000290: 318e fe3c eed5 a3bd 062a ff3d 3f32 29bd
000002a0: 19f8 acbd 6130 35bd 8839 c93d 29b1 0e3e
000002b0: d18c bd3b 8a2d 76bd f59a d5bb 1c69 07bc
000002c0: da1d 653d db19 f8bd 13b9 b6bd a816 e73b
000002d0: b698 b0bd dd7c 58bd 4b8a 203b 82c1 623c
000002e0: 689a d23d 8aaf 283d 1733 87bd 63bc a1bd
000002f0: 3ecb cb3b c229 bfbc ace4 b23d aa24 85bb
00000300: a3e7 203d eeda e53d 8116 913d e21a 333d
00000310: 3500 753d 764f 743d b1f2 4d3d b38a 70bd
00000320: ed5f 71bd 0dc9 a13c 1204 fdbd 60ed 8fbd
00000330: 9825 b0bd 50d2 82bd edfb b1bb 99d8 a4bd
00000340: 31a8 44bd da45 153d ec2a 28bb d2e7 08bd
00000350: 35f4 063e b07a 513d b6a4 eb3d 1066 b03d
00000360: 9fa1 c43d 9a1f 17be 5d1d fa3d 78aa 5cbd
00000370: 5b9e c3bc 7e84 a2bd d1d6 b5bd 9376 043e
00000380: 268f 79bd 5580 353d 0e09 9fbd e613 febc
00000390: b83a a5bd 473b 70bd 7fd4 f9bc b244 78bd
000003a0: ebb2 053e 7c6d 413d 5083 bcbd 0c85 913d
000003b0: 332d 713d 1d9d 103d ef22 8b3d 0753 33bc
000003c0: 3b9b c83d c23b 243d 0455 833d c27d 30bd
000003d0: 3bd3 8dbc 35e0 253e 6acf 8abd 3a80 573c
000003e0: b74c 9abd bf47 d43b 992a 703d e907 5e3d
000003f0: 9466 e5bc 8018 91bd aa7f 68bd f99d 90bc
-0.02244885 -0.08055267 0.02426817 -0.092467956 -0.056235533 -0.08274264 0.04940432 0.10074617
0.03949502 -0.081439435 -0.11547128 -0.055818863 0.0003647892 -0.0058843805 -0.0035355026 0.03626362
0.08675426 0.026335198 -0.10309849 -0.068401836 -0.10030487 -0.011296923 -0.10288518 0.10610327
-0.05685388 0.09082973 0.08419216 0.029931454 -0.095097244 0.033767316 0.0318765 -0.03369378
-0.100147024 0.09710397 0.07625373 0.09330366 0.026464658 -0.05673445 0.02293827 -0.08810701
0.0053763688 0.077874385 -0.115078695 0.062266592 -0.06720497 -0.10417101 0.060580097 -0.11262645
-0.123967834 -0.10961492 0.07046678 0.10791356 0.06263903 -0.008561294 0.03426337 -0.014909936
0.03998656 0.026469149 -0.02716844 0.008486511 0.054438937 0.04667503 -0.122321464 0.056674186
-0.0564579 0.112101644 0.060618877 -0.0011799812 -0.042384215 -0.07609994 -0.0292148 -0.06041265
-0.09936523 0.09660619 0.07943021 -0.12531406 0.021536147 0.0077255876 -0.13234821 0.06068628
0.0015575275 -0.013190231 -0.14335781 -0.10262982 0.053474896 -0.037850697 0.036930494 -0.095434636
0.09556213 0.065506645 0.103134334 0.113052964 -0.092141524 -0.063839555 -0.031387005 0.13069203
-0.027709236 0.052905437 -0.0085675325 0.09222887 -0.1042536 0.10348731 -0.10739107 -0.16369443
0.071171276 0.07381423 -0.05453046 -0.10977437 0.049540862 -0.07586896 -0.09462697 0.034383304
0.06205247 0.07827336 -0.0924357 0.05723889 -0.026459765 -0.016579526 -0.09410248 -0.014879492
0.2370506 -0.00954407 0.10733057 0.09662319 -0.013885459 -0.0044221813 0.09126872 -0.046056654
0.060293183 -0.075557515 0.014187778 -0.10993421 0.114539176 -0.10242898 0.004556931 0.02754647
0.019711675 -0.12624648 -0.07959387 -0.073381275 -0.047443274 -0.10984764 -0.06959684 0.035272464
0.045152593 -0.103301235 -0.03226815 -0.103878975 -0.012872448 -0.015293326 -0.035069227 0.08269845
0.117578045 0.08060941 -0.02922367 -0.11622188 0.13367932 -0.061674725 -0.103056386 -0.030245153
-0.054064542 0.1292978 -0.13220143 0.041995693 0.031073662 -0.07999788 0.12459187 -0.041307684
-0.084457584 -0.04423559 0.09825426 0.13934769 0.005784609 -0.060102023 -0.0065187165 -0.008264806
0.05593667 -0.121143065 -0.08922019 0.0070522614 -0.08622877 -0.052853454 0.0024496492 0.013840081
0.10283357 0.041183032 -0.066015415 -0.0789726 0.0062192967 -0.023335341 0.08735022 -0.0040632086
0.039283406 0.11223398 0.070843704 0.04372681 0.05981465 0.059646092 0.050280277 -0.058726024
-0.058929373 0.019749189 -0.12354292 -0.070276976 -0.086009204 -0.0638777 -0.005431643 -0.08049125
-0.048011962 0.03644357 -0.002566035 -0.033424206 0.13179095 0.051142395 0.115060255 0.08613217
0.09601139 -0.14758149 0.12212632 -0.05387351 -0.02387922 -0.07935427 -0.088788636 0.12935857
-0.060927533 0.04431184 -0.07765399 -0.031015348 -0.0806784 -0.05865028 -0.030496834 -0.060612388
0.13056533 0.047223553 -0.09204733 0.07105455 0.058880996 0.035306085 0.067937724 -0.010945088
0.09795233 0.040096052 0.064127 -0.043088682 -0.017312637 0.1619881 -0.06777842 0.01315313
-0.075341634 0.0064782794 0.058634374 0.054206762 -0.028003015 -0.07084751 -0.056762375 -0.017653452

lstm.bias_ih_l0 f4 [256]
00000000: 8438 b33c d832 85bd 33c6 28bd fd39 413d
00000010: 0ff3 bd3d 5b2f c6bd 03c7 0f3e 7b2e 0cbd
00000020: 212c e83b 62f4 3ebd 9237 69bc c662 67bd
00000030: 779f 103e 9aeb 8abd fdfe e13c 65aa d4bd
00000040: 5dfb 053e 5ae7 0e3b 5167 ae3d 5766 93bc
00000050: 3077 84bd 0fbc e3bb 8b2b 88bd 769a 9dbd
00000060: 8519 ed3d a01f 9ebd 5471 1f3e cc17 6f3d
00000070: 67d3 4cbb 0672 f73d 69ab 6dbd df2a ee3d
00000080: 93bd 6ebd 1cd2 c53d d388 373d d88f 1e3d
00000090: 644a 5ebd 3866 823d 35a6 c1bc 51a2 02bc
000000a0: 6bcb 963d c6a3 0d3e 726a 3bbd 5a78 93bd
000000b0: 05c7 093e 2d81 87bd 0a62 3d3d 8037 ab3d
000000c0: f346 b33d 3b81 f03d a497 b73d 9156 013d
000000d0: d871 de3d b33f 863e bdbf e13d 2d26 163e
000000e0: 0954 f23d 6e61 76bd 285d 89bc 8738 563e
000000f0: 1592 51bc 1c1e 973d c4d4 2d3d a1c6 c43d
00000100: a2f2 b93d 1bec 933c 0a76 a83d 7c5f 6cbd
00000110: 9d9a 0d3e 98ef cbbd 91ea 823d f046 123e
00000120: 4cfe 7abd 55d6 403d 974b f53d 8cae 13be
00000130: 4cf3 9cbd 4bbb e2bd 9c44 0f3e 4f7a 91bd
00000140: 426b da3d 7d40 6c3d 459e 34bc f5cc 443e
00000150: b4c8 ad3d d26c 0b3e ecd6 d13b a9e6 ba3b
00000160: bdd6 d3bd 2781 103d 64c6 7c3d b570 753c
00000170: f808 d43d ab7f 053e 9c33 0b3e e86c 9f3d
00000180: fbc1 4fbd 5946 72bd 6eb9 7dbd 682b e2bc
00000190: 00fd cabd cbd7 ef3a 8852 443d 2246 3ebd
000001a0: cbaa cdbd e0ad e13d a23b 27bc 5692 40bd
000001b0: a95a 65bd 5ddd b43d c16d b03c 8027 8a3d
000001c0: 54c9 e33d 2fb6 143c c6c1 753d 7113 61bd
000001d0: 1266 8ebd 77db aa3d 97af 503c 574d c43c
000001e0: a3a9 c8bc b47c 7abd be1a 88bd 04c7 9fbd
000001f0: fe42 a0bd 7b92 103e 6452 f33d 0fec 853c
00000200: 3d6e 27be 059c 7c3d acad 0f3d 2deb 7bbd
00000210: eb4b 62bd 8543 913d 1fba 40ba cd5d a83d
00000220: 3515 9dbc 58e2 d63d bfae e6bb c58f b1bd
00000230: 4c3d 673d 66a8 8abd caf0 a7bd 5f2d e5bd
00000240: 4623 b2bd de3e 05be 4fb0 21bd 16dd 17bd
00000250: 3329 e23d 25d2 0b3e fa51 26bd f245 bd3c
00000260: a5e7 26bc cae2 d7bd 5ec1 e1bd a4ad e9bd
00000270: df45 42bd 1489 f6bd d472 94bd 7b20 92bd
00000280: d017 8dba e7fc b23c b798 c33d 5ff1 c5bd
00000290: 5e08 093e 6f26 283c b28b 54bd 23c2 29bd
000002a0: 74f6 91bc 24d2 d53c 8603 2c3d f425 ddbc
000002b0: 85ca a1bd 85a6 0abe 6077 bb3d 6dd2 cebd
000002c0: e345 373c 2565 923d fac2 d0bd b6d6 debc
000002d0: ca02 ab3d 5967 20bc 96b3 bd3d 84fd c7bc
000002e0: 1b2e 38be c749 8cbb 97ee 1b3e 4eb5 c93c
000002f0: 1921 6d3c 1113 443d 90ea 59bc 3e7d ed3c
00000300: 65e0 983d ab4f e53d d5c2 3d3d 2f30 43bd
00000310: 8a29 c93d e854 48bb d88b 62bd 460e 743c
00000320: e293 c7bd e544 423d 376b 2c3c bcc9 bebc
00000330: f423 eb3d 98fd e93b cc21 fe3d 2740 f03d
00000340: 6354 ab3d f121 953d 4fa9 76bd b1ee 4bbc
00000350: 2f0d a03d 6040 003e 0959 c83d f471 083c
00000360: ddf5 8b3d deaa e03d b0fe 60bc ba4e 213e
00000370: 962d ec3d 4cc8 7f3d 81bb 0ebc c520 533c
00000380: c6fd 373d 1368 0c3d 91d0 d23d 0ca6 72bd
00000390: dff1 8a3d 16bc 8f3d b78a 1a3e eaaf d53c
000003a0: b408 173e 74ff 123d 890e 7ebd 8569 fbbc
000003b0: c465 d83d 9f23 57bc 3dd4 e9bd 3c54 413d
000003c0: cae2 cc3d 7b70 3a3c d527 c13d 5998 33bd
000003d0: 7669 1f3e 187d 7d3e 1011 163d 98b4 a23c
000003e0: 5d47 e53d 9072 9fbd 2f4d b3bd 96e8 1b3e
000003f0: 4d6e 173e 7dba 413e 1ef8 053b c297 51bd
0.021877535 -0.06503838 -0.041204643 0.047174443 0.092748754 -0.09677001 0.1404076 -0.034224015
0.0070853387 -0.04661978 -0.01423444 -0.056490682 0.14123331 -0.06783219 0.027587408 -0.10384063
0.13084169 0.0021805377 0.085158 -0.017993135 -0.06468046 -0.0069499086 -0.0664893 -0.07695477
0.11577133 -0.07720876 0.15570575 0.058372304 -0.0031253935 0.12082295 -0.058024798 0.11629271
-0.05828626 0.09659216 0.04480822 0.0387114 -0.054270163 0.06367153 -0.023638824 -0.00797327
0.07363018 0.13832006 -0.04575581 -0.072006896 0.13454826 -0.06616435 0.046236075 0.08360195
0.08753767 0.11743399 0.0896447 0.031576697 0.10861558 0.26220474 0.11022899 0.14663
0.11832435 -0.06015151 -0.016768053 0.20920001 -0.012791176 0.0737879 0.042439237 0.09608198
0.09079482 0.01805692 0.08225639 -0.05770825 0.13828512 -0.09957808 0.06392396 0.14284873
-0.061277673 0.047079403 0.11977308 -0.14422053 -0.07663593 -0.110708795 0.13991016 -0.07103407
0.10664989 0.05767869 -0.0110240625 0.1921881 0.08485547 0.1361573 0.0064037945 0.0057037664
-0.103436925 0.03527942 0.061712638 0.014980485 0.10353273 0.13036983 0.13593906 0.07784444
-0.050722104 -0.05914912 -0.061944418 -0.027608588 -0.09911537 0.0018298564 0.04793027 -0.046453603
-0.10042342 0.11019492 -0.010207089 -0.047014557 -0.055994663 0.08831284 0.02153671 0.06745815
0.11122385 0.009076639 0.05999925 -0.05495018 -0.06953062 0.08342641 0.012737176 0.02396266
-0.024494952 -0.061154082 -0.06645726 -0.07801631 -0.07825278 0.14118378 0.11880949 0.016347913
-0.16350646 0.06167223 0.035077736 -0.061503578 -0.055248182 0.070929565 -0.0007351953 0.08221016
-0.019175151 0.104923904 -0.0070398743 -0.0867 0.05645494 -0.06770401 -0.08200224 -0.111902945
-0.08698134 -0.13012263 -0.03947478 -0.03707608 0.110430144 0.13654383 -0.040605523 0.023104642
-0.010187064 -0.105413035 -0.1102321 -0.114100724 -0.047429916 -0.12037864 -0.07248464 -0.071351014
-0.0010764543 0.021849109 0.095506124 -0.096651785 0.13382098 0.0102630695 -0.051891036 -0.04144491
-0.017817713 0.02610118 0.041995548 -0.026995637 -0.07899956 -0.13540085 0.09153628 -0.10098729
0.011186096 0.07148198 -0.10193439 -0.027201992 0.08350141 -0.009790265 0.09262769 -0.024412878
-0.17986338 -0.004281256 0.15227734 0.024622586 0.014473223 0.047869746 -0.013300553 0.028990384
0.07464675 0.11196836 0.046328384 -0.047653373 0.09822376 -0.0030568186 -0.055309147 0.014895981
-0.09745003 0.047428984 0.010523609 -0.023289554 0.11481467 0.0071408264 0.1240879 0.11730986
0.08365705 0.072818644 -0.06022006 -0.012447045 0.078150146 0.12524557 0.09782607 0.00832795
0.06834004 0.1097009 -0.013732597 0.15752688 0.11532132 0.062446877 -0.008711697 0.012886231
0.04491975 0.03427894 0.10293687 -0.059240386 0.067844145 0.070182964 0.15091978 0.026084859
0.14749414 0.03588815 -0.06202558 -0.030689964 0.10566285 -0.013131051 -0.11417434 0.047199473
0.10004194 0.0113793565 0.094314255 -0.043846462 0.15567574 0.2475475 0.036637366 0.019861504
0.11195252 -0.07785523 -0.08754956 0.15225443 0.1478817 0.18918796 0.0020442079 -0.05117012

lstm.bias_hh_l0 f4 [256]
00000000: fcdb 5abd 954f 893d a0c1 aa3d 24bd d03c
00000010: c783 8c3d 1173 d7ba 0b94 b3bc 0a84 d13c
00000020: 714b 2e3d 0f5f e93d b282 2a3e 8ede 73bc
00000030: d8d0 e83d f576 33bd 7bc2 f03c bafe 923c
00000040: e71f 05bd 2b24 003e 90c5 a2bd c15e 233e
00000050: 25c7 bfbc b6e1 1abd 492b 163d e204 773c
00000060: 6642 5fbd 6cca a73d 7d89 77bc 0be9 1b3e
00000070: 87b1 123e 70a2 f93d 7bc9 c83d 842c fc3c
00000080: 19b1 233e 36a2 ad3d c7dc e6bd 7476 8a3c
00000090: 7dbe a73d a0b4 0dbe 205b a83d 8e33 353c
000000a0: 6059 fb3c ba45 bf3d 2039 d3bd 4475 e83d
000000b0: 88b3 fc3c 8864 28bc 536e 8fbd 5828 6fbb
000000c0: a148 4b3d 6dd9 143e 35b0 25bd a17d 203e
000000d0: 65db 493d a2e9 013e e299 c23d efb5 843d
000000e0: df9e ac3d a14f 22bd 1ba1 593d 82f5 223e
000000f0: eb30 63bd 465d a33c c82f 3fbd d7a0 5abd
00000100: 5e98 82ba ec6c acbd d849 94bd f28c 583c
00000110: b2e0 0e3e 08b8 e93d fc0c 143d 49af 933d
00000120: 0917 cf3d 34fd f5bc da7e 91bd 77fb cabd
00000130: ca63 f43d 1d81 1c3d a6a9 9dbc d33a b2bd
00000140: 3c4f c13d f21f cc3d e794 55bc c36b 0e3e
00000150: 31e0 8abd 5b1f bf3d c2f2 35bc a1e7 ce3d
00000160: d7d6 b73d 5d50 88bd 420d 1e3d fb5d 463e
00000170: 8859 dc3c 3dc3 ac3d 8683 4f3b cea9 e4bd
00000180: 0570 373c 01f7 d2bc 6ce5 aabd b4d1 1e3e
00000190: a6f2 b73c 44c1 67bd cd23 703d d36c c63c
000001a0: 6774 963d fbc3 843d 2b0e 84bc d8e9 adbc
000001b0: 8669 913d e3f2 dcbd 2fef dfbd cf76 c13d
000001c0: f08b f03d 5f3d 58bc 2ffb a0bc 4cf2 673d
000001d0: 9080 b53d acb1 7abd 2096 0c3d b3f4 4d3d
000001e0: 7d6a d4bc 6d34 12be 0b26 3c3c 975e 98bd
000001f0: 6068 cf3c bde4 3e3e eaa3 ef3d 27d9 f13d
00000200: d90c 3cbd 6e18 cd3d f8d6 403d 1b49 493d
00000210: 6571 26be 0567 a93d b45a eebd 1857 bf3d
00000220: 3f45 c53d 0c35 cd3d b65e 70bd f988 5e3d
00000230: 10b7 c53d 9fce 0ebd 6ab3 05bc 6ffc 51bd
00000240: f933 51bc 0553 17be 822b 1dbd 4bb5 f3bc
00000250: e47e 333d 3f37 a0bc cb2b f73c 073f a23d
00000260: d5a5 55bd 889c 75bd 3a23 d03d 5481 303d
00000270: 9ee2 9f3c 17b7 8cba 31e4 853c dbfd c73d
00000280: 2b5f 0bbe f5ba f3bd 7386 bdbd 9192 17be
00000290: ddf9 8b3c 6413 53bd 1fb0 a03c b7ab 3abd
000002a0: 95b1 4e3d eaa7 45bc a59a f1bd d258 63bd
000002b0: e36e 9cbd ffef b13b 25f1 f3bb 7bb8 4fbc
000002c0: 8a5a 0ebe 02b1 0f3e 3fd9 963d 67e3 db3c
000002d0: 50b0 ad3d d438 69bd 5cd6 97bd 5a2f b93c
000002e0: 4c7e 1bbe 6d85 97bd 2101 f3bc 06df 053e
000002f0: 0892 1dbe 4103 24be 65d8 fcbd d841 c03d
00000300: e372 80bd 9af7 143e 4dd6 133d 330e b33d
00000310: e29d ec3d b50e 833c e286 8fbd 5f72 8fbd
00000320: 130e ddbc a6c5 1c3e 0c5c 57bd d5a4 5abd
00000330: a8ba 573a f8a8 483d bcc3 003c 1186 a83d
00000340: 4d7b a6bd b4d2 d43d 3f89 253d e83f d6b9
00000350: 8c14 69bd 28a1 3fbd 0215 103e ef84 f33d
00000360: cb4c a53d 550c cdbc 94b5 613e c9c2 85bb
00000370: 6b68 64bd aafb 07bd c5c3 b6bb bbe4 89bd
00000380: e671 be3d 5689 073d cade d1bb c5a5 7cbd
00000390: d773 8fbc 0e51 4cbd 4a95 343e cfa1 67bd
000003a0: 5d95 bcbd 56a3 213e d6f2 b1bb 3eb2 04be
000003b0: a191 b3bc a030 193e 64b5 1ebd 0424 863d
000003c0: 710b 223c d066 693c 9aa7 013e aa0f 9b3b
000003d0: f869 053e faed 173e 8553 c03c 5a00 633c
000003e0: ab15 f63d 5b1f 00be 06dd 633d cf3c 273e
000003f0: e0ff 98bc f583 9d3d 1382 20bd 6069 a2bc
-0.05343245 0.06704632 0.08337712 0.025480814 0.06861072 -0.0016437491 -0.021921178 0.025575656
0.042552415 0.11395084 0.16651419 -0.014884604 0.11367959 -0.04381462 0.02938961 0.017943729
-0.032501128 0.12513797 -0.07947838 0.15954114 -0.02341039 -0.03781291 0.036662374 0.015076848
-0.05450668 0.08192906 -0.015108463 0.15225618 0.14325534 0.121891856 0.09804054 0.030782945
0.15985526 0.08478205 -0.11272579 0.016902186 0.0819063 -0.13838434 0.08220506 0.011059655
0.030682266 0.09339471 -0.1031363 0.11350492 0.030847326 -0.010277875 -0.070034645 -0.0036492553
0.04962981 0.14536066 -0.040451247 0.15672924 0.049281497 0.1268678 0.09502007 0.064800136
0.0842874 -0.03962672 0.053132158 0.15913966 -0.055466574 0.019941937 -0.046676427 -0.053376045
-0.0009963622 -0.08419213 -0.07240647 0.013217198 0.13952902 0.11412054 0.036145195 0.07211167
0.101118155 -0.030027963 -0.07104273 -0.09911244 0.11933096 0.03820907 -0.019245934 -0.08702626
0.09438941 0.099670306 -0.013035989 0.13908295 -0.06781042 0.093321525 -0.011105241 0.101027735
0.08976524 -0.06655953 0.038586862 0.19371788 0.02689816 0.08435676 0.0031664087 -0.111652
0.011196141 -0.025752546 -0.0834454 0.15509683 0.022454571 -0.056580797 0.058627892 0.024221813
0.07346421 0.06482693 -0.016120037 -0.02122967 0.07100205 -0.107885145 -0.109342925 0.09446489
0.11745441 -0.013198226 -0.019651024 0.056627557 0.08862412 -0.061204597 0.034322858 0.05028219
-0.025929684 -0.14277811 0.0114836795 -0.074399166 0.025318325 0.18641944 0.11701186 0.11808997
-0.04591069 0.10014425 0.04708001 0.049141984 -0.16254194 0.082716025 -0.11638394 0.09342784
0.09632348 0.100198835 -0.058684073 0.054329846 0.09654057 -0.034865018 -0.008160451 -0.05126613
-0.012768739 -0.14777763 -0.03837157 -0.029749533 0.043822184 -0.019557593 0.03017225 0.07922178
-0.052160103 -0.059963733 0.10162969 0.043092087 0.01951724 -0.0010735717 0.016344162 0.09765216
-0.13610522 -0.119008936 -0.0925416 -0.14802004 0.017086918 -0.051532164 0.019615231 -0.045573916
0.050462324 -0.01206396 -0.11797074 -0.055504628 -0.076383375 0.005430221 -0.007444518 -0.012678261
-0.13901725 0.14032367 0.07365655 0.026841832 0.084808946 -0.05693896 -0.07413933 0.022605587
-0.15184897 -0.07398496 -0.029663624 0.13073358 -0.15387738 -0.16016866 -0.123459615 0.09387559
-0.06271913 0.14547578 0.036093045 0.08742943 0.11553551 0.015998224 -0.07008149 -0.070042364
-0.02698425 0.15309772 -0.052578017 -0.053379852 0.0008229413 0.048989266 0.007859167 0.08228696
-0.081289865 0.10391751 0.04041409 -0.00040864875 -0.05690436 -0.04678455 0.14070514 0.118905894
0.08071288 -0.025030294 0.22041923 -0.004082058 -0.055763643 -0.03319899 -0.0055775368 -0.0673308
0.09299068 0.033089958 -0.0064047324 -0.061681528 -0.017511291 -0.049881987 0.17635074 -0.056550797
-0.09208176 0.15784964 -0.0054305596 -0.12958619 -0.021920027 0.14959955 -0.038747206 0.06549838
0.009890423 0.014245704 0.12661591 0.004732092 0.13028705 0.14836875 0.023477325 0.013855064
0.120158516 -0.12511961 0.055630706 0.1633179 -0.018676698 0.076911844 -0.03918655 -0.019825637

fc.weight f4 [4, 64]
00000000: d1b2 1dbe 95f6 133e cd7d 81bd 3fe0 c53c
00000010: 68cc fbbd 40e2 fe3d 1922 623c 8d16 ba3d
00000020: 429d 983d 728b b93d 0776 aabd 4b30 bd3c
00000030: 1ec0 6b3d 1d33 fabd 2722 1dbd 306f 463c
00000040: 8e6a 3abd 18a6 9cbb 7d7a b43d 67d6 5f3c
00000050: ac9e ea3d a432 b23d a4f0 9b3d 9458 dabd
00000060: 05bd bebd 50db 36bd a729 5c3d 67ea 083d
00000070: bc42 8c3d 4224 82bd f1e9 1dbd d933 cf3c
00000080: 1f28 09be 79a9 aabb 68fc e73d 8077 0abe
00000090: 7c0c 1d3e 7f50 a63b 20d9 be3b e6de 25bd
000000a0: 0855 ec3c 8dd9 16be e4db bd3d 290f b23d
000000b0: 4c5e 8b3a 93a4 03bd 9aa5 043d 810f 003b
000000c0: 437e 64bd 7e35 483c 1bb7 863d a87c 83bd
000000d0: 4f9c 263e e6ee 0f3e 1a78 28bd 1efe 06bd
000000e0: 93bd 31bd c860 533d 14f1 f63d ad5f 9f3d
000000f0: 48dd 07be 3b3b 57bd 2090 19bd ca8c 3b3d
00000100: 9838 c5bd df9a aa3d 5213 013e 1856 cf3d
00000110: 1a41 a3bd b552 67bd 4ef8 2abe cb54 f53c
00000120: 7867 79bc dbee 1e3e cbaa 2fbe e3d0 0fbd
00000130: 7471 033e 70c9 47bd 5ed7 3dbe 614e ebbd
00000140: f711 24be 201c 16be 077c 0c3d 8736 1e3e
00000150: 5c61 0b3e e658 ee3d 76e9 093e d214 a43a
00000160: 80c0 c93d 8d0f 03be d23c 0d3e ee5f 9d3c
00000170: 9acf ffbd efe1 f13d 4527 1abe 421f ebba
00000180: ec31 8fbb 0e44 703d e89e dcbd e701 3a3d
00000190: 87c7 213d d58e a1bd 4f17 ebbc 084a ba3c
000001a0: cdf1 1e3e b8b5 573d 514a 09be 1333 253d
000001b0: 742f 41be 93fe 27be 4558 b03d c464 17be
000001c0: 9742 73bc b81f 0a3e 9377 9c3d 51d3 1abe
000001d0: 6ec0 193e 0e88 b93d 4f3d 14be 137c a83d
000001e0: 403b 41be 74d4 763d f24b 72bd 0d9c f43d
000001f0: 295c 37be 90be fabd 7339 cd3d b0bd f53d
00000200: b49a a63d 0092 70bd ad95 1b3d 371a 55bd
00000210: c312 513d 1682 b13d 307d eebd 1ec0 9a3d
00000220: 7f20 27be 639a 0b3e 541b d1bd 7e78 04be
00000230: 7320 eb3d be24 67bc 81a3 09be b337 53bc
00000240: be5e aebd b3c9 fbbd 3faa 00be acdd 23be
00000250: e12b 133d 06eb ae3d d5ed eebd 5313 f13d
00000260: 98da 933c 4e03 da3c dc9b 2f3b 138f df3c
00000270: 68ec cfbd 963e 94bd e0e7 a8bd e67f ff3c
00000280: 18ed 583c 68c1 01be 8e69 f1bc 3a7a fcbd
00000290: ea28 fdbc 2c4f 0a3e 8ea8 b73c 1a39 02be
000002a0: 369a 073e 2baf 0d3d 25a2 5bbd 4914 1bbd
000002b0: e472 e8bb 4eac d1bd e992 a93c 625e ad3c
000002c0: 8077 9fbd 8043 32bd c327 7cbd e622 ea3a
000002d0: 7cf2 853d cb43 bd3d b834 14bd 08b5 4bbd
000002e0: d8b7 013e a3b0 bd3d 7274 2f3c 7bec 2d3c
000002f0: c77d 093d 697a 2bbc 7214 aebd 7c37 343d
00000300: 176b 96bd 9bbb 2dbd 38ec 683d be57 66bc
00000310: e220 613c 84f5 c2bc 2e5b 0abe 4f0d a73d
00000320: d463 493d 2229 403d 93ba 083d 5ccd 963d
00000330: 0891 17bc b5a0 943b 9acb c1bd b812 153d
00000340: accf b7bd 57bf d73c a987 6f3a ecab ddbd
00000350: 1a27 20bd 92c8 403d df51 8abd 5bbd 53bd
00000360: 457f c6bb 64fb 69bb b9dd 9b3d 880d 723d
00000370: ff29 fdbd d564 febd dcaf 3dbd 9ad9 403d
00000380: 87d6 8dbd 88d1 07be b831 a7bd 8727 dabb
00000390: 12bc 2ebd 265f 82bc 766e d6bc dab0 123d
000003a0: 1a60 3dbd 0afd fabd a12f 0fbe 2d7e cb3d
000003b0: fa06 50bd 2bc5 b2bd 1338 afbd 9d6d 00be
000003c0: 64ca 33bd 27fa e03d 2717 23be cd4f a13c
000003d0: 22b0 983d 5a2a 0d3e 1a92 b5bd 699a 16be
000003e0: cd7a b93d 3a53 573d 1c4c cc3d 9681 173c
000003f0: 21f0 ee3b fc69 2b3d 8cbc a53b 9df5 033e
-0.15400244 0.14449532 -0.06322823 0.02415478 -0.12294847 0.124454975 0.013802075 0.090863325
0.074518695 0.090598 -0.08323293 0.023094317 0.057556264 -0.1221678 -0.03836265 0.01211147
-0.045511775 -0.004780542 0.08812425 0.013661957 0.114560455 0.08701065 0.07614258 -0.10661426
-0.09313396 -0.044642746 0.05375066 0.03342667 0.06848666 -0.06354572 -0.038553182 0.025293278
-0.13394211 -0.005208191 0.113274395 -0.13522148 0.15336794 0.005075514 0.005824223 -0.040495776
0.02884914 -0.14731427 0.092704564 0.08694298 0.0010632961 -0.032139372 0.032384492 0.001954049
-0.055784475 0.012219785 0.06577893 -0.06420261 0.16270564 0.14055976 -0.041130163 -0.03295719
-0.043393683 0.05160597 0.12057701 0.077819206 -0.13268006 -0.05254672 -0.037490964 0.045788564
-0.09629935 0.083303206 0.12605026 0.10123843 -0.079714015 -0.05647536 -0.16696283 0.029947659
-0.015222423 0.15520804 -0.17154996 -0.03511132 0.12836248 -0.04877609 -0.18539187 -0.11489559
-0.16022478 -0.14659166 0.03429797 0.15450488 0.13611358 0.1163805 0.13467965 0.0012518412
0.098511696 -0.12798901 0.13792732 0.019210782 -0.12490769 0.118106715 -0.15054043 -0.0017938393
-0.004369965 0.058658652 -0.107724965 0.04541197 0.039496925 -0.07888571 -0.028697638 0.022740379
0.15521927 0.052663535 -0.13407256 0.04033191 -0.18865758 -0.16405706 0.08610586 -0.14784533
-0.014847419 0.13488662 0.076399945 -0.15119673 0.15014812 0.090591535 -0.14476512 0.0822679
-0.18870258 0.060261205 -0.05915446 0.11943827 -0.1790625 -0.12243378 0.10020723 0.11999071
0.08134976 -0.058732986 0.03798454 -0.052026954 0.051043283 0.0866739 -0.11644971 0.07556175
-0.1632099 0.13633113 -0.102102906 -0.12936589 0.114807986 -0.014107881 -0.13441278 -0.012891698
-0.085141644 -0.122943304 -0.12564944 -0.1600253 0.035930518 0.08540921 -0.116664566 0.11771264
0.01804857 0.026612904 0.002679578 0.027289903 -0.10152513 -0.072385 -0.08247352 0.031188916
0.013240121 -0.12671435 -0.029469278 -0.12328 -0.030903298 0.13506764 0.02241924 -0.12717095
0.1324242 0.03459088 -0.05362143 -0.037861142 -0.007093774 -0.10237943 0.020699935 0.02116317
-0.07786465 -0.043521404 -0.061561357 0.0017863184 0.06540391 0.09241446 -0.03618309 -0.04973319
0.12667787 0.092622064 0.010708915 0.010615463 0.033567216 -0.010466197 -0.084999934 0.043998227
-0.073446445 -0.042415243 0.0568659 -0.014059005 0.01374075 -0.023798712 -0.13511345 0.08156835
0.04916747 0.046914227 0.033381056 0.07363388 -0.009250887 0.0045357593 -0.09462662 0.036394805
-0.08975157 0.026336355 0.00091373414 -0.10823807 -0.03909979 0.04706628 -0.06753897 -0.051694255
-0.006057652 -0.003570282 0.076106496 0.059094936 -0.12361526 -0.12421576 -0.04631029 0.04708252
-0.069256835 -0.13263524 -0.0816378 -0.006657544 -0.042659827 -0.015914511 -0.026175719 0.03581319
-0.046234228 -0.122552946 -0.13983013 0.099361755 -0.050787903 -0.08729013 -0.08555617 -0.12541814
-0.043894187 0.10985213 -0.159268 0.019691372 0.0745547 0.13785687 -0.08865757 -0.1470734
0.090566255 0.052569605 0.09975454 0.009247204 0.007291809 0.04184912 0.005057877 0.12886663

fc.bias f4 [4]
00000000: ef8a b7bd 097b e03d f5af 553d 9a73 8f3d
-0.08962046 0.10960967 0.05216976 0.07004471
