LSTM_v2/pillow_total_sales_model.pth (torch, 50994 bytes, 5 tensors)

lstm.weight_ih_l0 f4 [200, 8]
000000 40 c8 83 3d 11 ac 98 3d 1b 42 0d 3e 09 23 22 be
       0.06434679 0.07454694 0.13794748 -0.15833677
000010 17 c9 55 3e 5c c3 5b be 4c 89 6c be f9 2a a2 3e
       0.20877491 -0.21461242 -0.2309925 0.3167341
000020 7b cc 84 3e ad 67 05 be 38 f4 46 bd 8c e5 6a 3d
       0.25937256 -0.1302783 -0.04857275 0.05734782
000030 b8 15 2c be 2e eb 8d 3d e0 d7 44 bd 47 72 3d 3e
       -0.1680516 0.069296226 -0.048057437 0.18500625
000040 c3 ba 06 3e 99 a5 38 3e 7a bc 64 3e 98 5c 22 3e
       0.13157181 0.1803192 0.22337523 0.15855634
000050 6c e7 ab bd 5e a8 87 3e f1 26 b5 3d 5e 1c 7d 3e
       -0.083937496 0.2649564 0.08845318 0.24717852
000060 70 bc c1 3a 36 0e 84 bb 7d 72 41 3e bf e1 d7 3d
       0.001478089 -0.0040300144 0.1889133 0.105411045
000070 2e 86 30 bd e4 cc 9a 3d b7 2c 2f be 07 18 f9 3e
       -0.043096714 0.07558611 -0.17106901 0.48651144
000080 d0 09 25 3d 8c 43 b1 3e e4 44 16 3e 69 aa c5 be
       0.04029256 0.34621847 0.14674717 -0.38606575
000090 35 2f c4 3d d4 20 91 be 9d 7b f5 be f1 fe 13 3e
       0.095793165 -0.28345358 -0.47945872 0.14452721
0000a0 32 27 66 bc d2 a1 b5 bd 7e 58 d7 3e 5b 51 5d bd
       -0.014047431 -0.088687554 0.42059702 -0.054032665
0000b0 d5 3b 18 be 0d 40 85 3c f0 3d 06 3e 7d 93 c9 3c
       -0.14866574 0.016265893 0.13109565 0.02460646
0000c0 cf 41 24 3e 64 65 7f 3e fa 60 0c 3e bd 4f f0 3d
       0.16040729 0.24941021 0.13708869 0.11733959
0000d0 48 5e 89 bd c7 50 4e be b9 39 59 be 34 98 fa 3c
       -0.06707436 -0.20148002 -0.21213426 0.030590154
0000e0 6f ae 9e bd 59 34 27 be 38 e5 1d be 5e 7f 10 3b
       -0.07748114 -0.16328563 -0.15419471 0.0022048573
0000f0 c1 0f d9 bd d7 8e 93 3d fa 18 ad 3d 23 1f 23 bd
       -0.10598708 0.07204979 0.084520295 -0.039824616
000100 d7 61 17 3d 7e 93 3e be f6 12 a0 3c 73 18 ec be
       0.03695854 -0.18610951 0.019540291 -0.46112403
000110 16 a1 e1 be 0e 51 06 bd 9a 05 81 bc 66 d2 1a 3d
       -0.4406821 -0.032792144 -0.015749741 0.037798308
000120 d3 60 58 be 11 ee a8 3e 06 af 61 3e b6 ac 0b be
       -0.21130686 0.3299413 0.22039422 -0.13640103
000130 c5 db bd bc 4f 40 b7 be 93 da f0 be 1d de ea bd
       -0.023176083 -0.3579125 -0.4704176 -0.11468146
000140 5a d8 23 3e 5f 25 02 be 43 9a 71 bd 7b a6 96 be
       0.160005 -0.12709568 -0.058985006 -0.2942389
000150 7b d7 37 be 32 f3 aa be 5d 32 91 be 61 79 01 3d
       -0.17953293 -0.33388668 -0.28358737 0.031609897
000160 54 07 96 be 50 9c 56 be 48 d8 6c 3e 1a 4f 46 3c
       -0.29302466 -0.20958066 0.2312938 0.01210382
000170 88 e6 44 be e2 7c d0 3d 89 7d 17 3e dd 3e 77 bc
       -0.19228566 0.101800695 0.14793982 -0.015090671
000180 12 c0 4a 3d f0 b3 55 39 83 05 dd bd df 65 ca bd
       0.04949958 0.00020380295 -0.10792067 -0.098827116
000190 b7 39 bf bd de 5c 02 be 7b fd f4 bd a5 05 02 3e
       -0.0933718 -0.12730739 -0.1196241 0.12697466
0001a0 1a 8b 32 bd 23 16 0e 3e bb dc dd 3e 90 ce 9f be
       -0.04358969 0.13875632 0.43332466 -0.31212282
0001b0 45 09 05 3e b9 85 e0 be 40 ef 03 bf 2e 98 95 be
       0.12991817 -0.43852022 -0.5153694 -0.29217666
0001c0 64 a2 c9 bd 5d a8 2b 3e 37 60 62 be 72 6a 4c be
       -0.09845427 0.16763444 -0.22107016 -0.1996248
0001d0 5c df 08 3d d3 09 8e be 53 72 80 be 2c 4c d0 bd
       0.033416137 -0.2774187 -0.25087222 -0.10170779
0001e0 bd 44 c2 3e 29 e9 be 3e ab 37 76 3e 10 9b c6 3c
       0.37943068 0.37287262 0.24044673 0.024243861
0001f0 ae 5e 4b 3e 73 e7 65 bd 8e a5 1e bd 97 6d 14 be
       0.19860336 -0.05612893 -0.038732104 -0.1449493
000200 c3 b5 a3 3e 65 3c a0 bd 6f 35 13 be 0b a1 dd 3e
       0.3197461 -0.07824019 -0.14375852 0.4328693
000210 96 88 11 3f ae eb 80 3e d8 45 3c 3e af 2a 63 bf
       0.5684904 0.2517981 0.18386018 -0.88737005
000220 66 ff d4 3e d3 a2 5d 3e d9 01 fb bd 2b 4d d5 3d
       0.41601104 0.21644144 -0.12256212 0.10415109
000230 8d 8a 66 3d eb 1b 2b 3d ed c9 2e bd 7e 9d 2b be
       0.056284476 0.04177467 -0.04267304 -0.16759297
000240 6e 2a 91 bc b3 b0 a4 3d 22 e4 b3 bc 4a 0b 8f 3e
       -0.017720427 0.08041515 -0.021959368 0.279383
000250 6a f3 91 3d 0a ea 42 3e ee d9 1a 3d dc 90 d5 be
       0.07126506 0.19034591 0.03780549 -0.4171208
000260 3c 72 4f bc cf e5 ac bd d3 ef 00 be 43 80 65 bc
       -0.012661513 -0.0844227 -0.12591486 -0.014007631
000270 81 f9 05 be d2 6d 07 3c 42 cb d0 3d ee d7 2e 3e
       -0.1308346 0.008265929 0.10195018 0.17074558
000280 90 67 d2 3c d7 d3 01 bd b7 52 17 3e a2 df b6 3d
       0.025684148 -0.031696167 0.14777647 0.08929373
000290 d0 0a 27 be 28 5d a5 3e ce 3a 3e 3e 10 cc 80 3e
       -0.16312718 0.32297635 0.1857712 0.25155687
0002a0 26 ca b0 3e d4 57 5e be 45 90 12 be 82 df 75 be
       0.34529227 -0.21713191 -0.14312847 -0.24011043
0002b0 3c 44 3d be 02 b6 60 be 99 4d 53 be f3 98 03 be
       -0.1848306 -0.2194443 -0.2063507 -0.12851314
0002c0 be 9d ba 3e 20 db 93 be e3 f1 d5 3e a5 eb 12 3d
       0.36448473 -0.28878117 0.41786107 0.03586926
0002d0 c3 8a 0d bc 4f e7 20 bd 42 ed d5 3d a4 f5 6e 3e
       -0.00863904 -0.039283093 0.10445644 0.23335892
0002e0 26 48 7e bd 70 e7 8b be 3d da a7 bd 96 6f 78 3e
       -0.062080525 -0.2732501 -0.081959225 0.24261317
0002f0 cb bf ed 3d 1e 08 2a 3d 57 6a c6 3d 21 b1 a4 3d
       0.11608847 0.041511647 0.096882515 0.08041597
000300 3c a6 ad 3d 63 f1 3d be cc 63 a4 bd 0d 9b 4d 3e
       0.08478972 -0.18549113 -0.08026847 0.20078678
000310 4c 6a 4c 3c de 29 69 3d 42 59 25 3d 5f 91 86 bd
       0.012476515 0.056924693 0.040368326 -0.06570696
000320 b8 6c 90 3e 89 f8 de 3e 37 0d 28 3d d5 5f 02 3d
       0.28207946 0.43548992 0.041028228 0.031829674
000330 c4 ec 34 bd 59 08 e1 bd 64 79 8b be 6e fb e0 bd
       -0.04417111 -0.1098792 -0.2724105 -0.109854564
000340 0e e3 f1 bd a3 0c 20 3e 11 0c 93 3d a9 7f 49 3e
       -0.11810885 0.1562982 0.07180036 0.19677605
000350 66 0a 7b 3e 08 7b b8 bd 3a e4 67 3d b4 cf 0a 3e
       0.24515685 -0.09007841 0.05661414 0.13555795
000360 fd c3 de bd 59 52 f3 bd 94 6b 10 bd 03 d3 65 3d
       -0.108772255 -0.11880941 -0.035258844 0.05610944
000370 95 81 6d bd 4b 52 7e 3e f1 d0 b3 3e 7a 85 30 3e
       -0.057984907 0.2483608 0.35120347 0.17238417
000380 1b 56 34 bd 2e a2 92 bd 69 62 8a 3c 2d 03 86 3e
       -0.04402743 -0.071598396 0.016892629 0.26174298
000390 e8 5f f2 bc 30 69 a3 3e d6 61 a9 3e df 12 08 3d
       -0.029586747 0.3191619 0.33082455 0.033221122
0003a0 0f c4 23 3e b3 4b 74 bd 8d 9d be 3e 23 4f 01 be
       0.15992759 -0.059642505 0.37229577 -0.12627845
0003b0 2e e1 b0 bd 68 51 9e bd a5 3d 3c be 19 3a c9 3c
       -0.086366996 -0.07730371 -0.1838289 0.024563836
0003c0 c1 c0 d7 3d 57 bf 58 be be 43 6c be be 9d 8c 3e
       0.10534812 -0.2116674 -0.23072717 0.27464098
0003d0 a6 32 a5 bd 78 b7 74 bd 74 67 66 3d 83 30 e3 be
       -0.08066301 -0.059745282 0.056251004 -0.4437295
0003e0 80 3c e3 3e c6 c0 b4 3e 5c 12 3b 3d 3f 5f 62 be
       0.44382095 0.35303324 0.045671806 -0.22106646
0003f0 a5 d6 fc 3d 9f 0d 8c bc 50 90 29 be a5 df 0a be
       0.12345628 -0.017096339 -0.16558957 -0.13561876

lstm.weight_hh_l0 f4 [200, 50]
000000 79 c9 22 3c 2b 9a 6c bc ae 9e 11 be ef 61 2f 3e
       0.00993573 -0.014441053 -0.14220688 0.17127202
000010 14 dd e5 3d 9c cc 9d 3e 05 ff 96 bc 9a ed 38 be
       0.11223808 0.30820167 -0.01843215 -0.18059388
000020 b0 ee fd bd 8d cb 9c bd 32 f2 a7 bd ba 5b 91 be
       -0.12399042 -0.07656012 -0.08200492 -0.28390294
000030 6a a1 6a 3e 64 f5 86 3e b7 5c a4 bd 2a 8c 95 3e
       0.22913137 0.26359093 -0.080254965 0.292085
000040 69 4d 50 bf cc f6 19 3d 6b 85 28 bf af eb 0a be
       -0.8136812 0.03758888 -0.6582858 -0.13566469
000050 33 b5 f7 bd 60 fe 86 bd 39 8c e0 3c f8 19 6b bc
       -0.12095108 -0.06591487 0.027410613 -0.014349453
000060 ec db 6c 3e 94 dc d7 3d 48 98 5d be 13 56 80 3e
       0.23130769 0.10540119 -0.21640122 0.2506567
000070 3e e9 48 be 4d 4e 07 3d 47 14 66 3e 14 63 5f 3e
       -0.19620225 0.033033658 0.22468673 0.21815139
000080 09 de 4c 3e 15 b1 1e be 31 81 1b 3d bd 68 48 be
       0.20006575 -0.15497239 0.037965003 -0.19571204
000090 a7 89 68 bd 5d 6d 92 3e c1 0e 1f 3d 71 c2 8c bd
       -0.0567719 0.28599063 0.03883243 -0.06873024
0000a0 08 31 43 3d 0d f2 75 3e 4c a3 1f bd 7d c5 08 be
       0.04765418 0.24018116 -0.03897409 -0.13356586
0000b0 ac 28 e8 3c ca 07 42 3d 7d 19 2f be 64 b3 8f b9
       0.028339706 0.04737071 -0.17099567 -0.00027408742
0000c0 d7 c5 0d bd 2c d1 53 bc ea 4f bd 3d e9 a6 4c 3e
       -0.034612503 -0.012928288 0.09243758 0.19985546
0000d0 28 9b a8 3d e8 12 68 bd 48 e9 9f 3c 57 a9 51 3e
       0.08232719 -0.056658655 0.019520417 0.20474754
0000e0 14 0e c8 bc a1 21 87 3d c0 ef 81 3c b8 de 83 3d
       -0.024420775 0.06598211 0.015861392 0.064389646
0000f0 5a aa ec bc 1a 08 86 3d ae 27 0d 3c 03 97 1c 3e
       -0.028889824 0.06544514 0.008615417 0.15291981
000100 90 99 d5 3d ab 6b 82 3c c5 5f 32 be 47 4c a4 3d
       0.1042968 0.01592048 -0.17419346 0.08022361
000110 5b a3 81 be 19 e6 9b bd 3c bc 11 3e 08 9f f5 3c
       -0.25319943 -0.07612247 0.14231962 0.029983059
000120 e6 10 85 3e 1c ab ae 3c 19 93 df bd de 73 a9 3e
       0.25989455 0.021321826 -0.109167285 0.33096212
000130 39 0d 0c 3e 8b c5 11 be b1 08 f7 3d 48 f5 89 3e
       0.13676919 -0.14235513 0.12062205 0.26944947
000140 ca 27 89 3d 1f 59 28 3e fc f8 14 be c5 1e 83 3d
       0.06697042 0.16440247 -0.14548105 0.06402353
000150 2c f1 d5 bc 6d 6f 2e 3c 3e 16 26 3e 6d 7d 33 be
       -0.026115976 0.010646683 0.16219422 -0.17528315
000160 49 57 7b 3b f3 5d c1 bd 28 2b fe bd ce 66 d2 3b
       0.0038351587 -0.094417475 -0.12410575 0.0064209467
000170 7c d1 4c 3d d9 99 d1 bd b9 73 c6 bd b9 5c 0f be
       0.050004467 -0.10234422 -0.09690041 -0.14000215
000180 70 e5 da 3d 42 81 66 bd 6f 8e 2c 3e b0 a4 0e be
       0.10688293 -0.056275614 0.16851209 -0.13930011
000190 3c 0b 2c 3e b6 bd 9a 3a bf c5 f8 bd 74 1b e9 bd
       0.1680116 0.0011805806 -0.12147092 -0.113821894
0001a0 83 d4 1d 3e dd 87 14 3e cd ba 67 bd 2e e3 b0 bd
       0.15413098 0.14504953 -0.05657463 -0.08637081
0001b0 ea 6d c9 3d a2 7d 5f bd c9 0a 94 bd 44 57 48 bc
       0.098354176 -0.054563172 -0.072286196 -0.012227837
0001c0 d8 bf 6b 3e fa 7f 16 bd a9 c5 bd bc 32 4a 3a bd
       0.23022401 -0.03674314 -0.02316554 -0.045480914
0001d0 9b 9a e5 bd 7e d5 75 be d6 2f d4 bd 49 da 0b 3c
       -0.11211129 -0.24007222 -0.103606865 0.00853593
0001e0 37 4f fe bc b2 cf 43 bd 43 c0 30 3e 1f da cd bd
       -0.031043632 -0.047805496 0.17260842 -0.10051369
0001f0 1a ac 8d bc c5 88 a1 bb 38 cf c1 bd e2 f6 bc bd
       -0.017293978 -0.0049296343 -0.09463352 -0.09226777
000200 42 37 d2 3c d4 d1 48 3e 6a 88 a6 3d 9b 9d d2 be
       0.025661115 0.19611293 0.08131488 -0.41135868
000210 98 4e 6b be 97 44 a6 bd 66 ac 29 be c5 6d 32 3d
       -0.229792 -0.08118551 -0.16569671 0.043561716
000220 1a 96 40 3e c7 ce 4e be a0 fd 1d be 84 30 eb bd
       0.18807259 -0.20196067 -0.15428782 -0.11483863
000230 aa fd fa ba 2c 6c 33 3e 4e 30 12 3e 39 76 d6 bd
       -0.0019149084 0.17521733 0.1427624 -0.10471768
000240 e2 4f 70 be 6e 48 61 be cf aa 41 bd 80 76 22 bd
       -0.23467973 -0.22000286 -0.047282036 -0.03966379
000250 2d de 24 bd 4e 03 56 bd 5c 5c 0c be 06 15 04 be
       -0.040250946 -0.052249245 -0.13707107 -0.12898645
000260 59 cf 5f be 0a 8b ba 3d 18 c6 0d 3e f0 b7 99 3e
       -0.2185644 0.09108551 0.13845098 0.30023146
000270 4e cb 0f bc 11 08 20 be 3b fc 42 be 81 6a 53 bc
       -0.008776499 -0.15628077 -0.19041531 -0.0129038105
000280 eb 10 6f 3b 3a a2 95 3c 5b ca 6b 3e 89 85 e0 3e
       0.003647859 0.018265832 0.23026411 0.4385188
000290 81 05 bd 3d 75 35 ae bd 74 4b 20 bf 72 b1 5b 3d
       0.092295654 -0.0850629 -0.6261513 0.053636022
0002a0 c1 18 a8 be 21 ba 4b 3d bc c6 ed bd 00 88 85 bd
       -0.32831386 0.049738053 -0.11610171 -0.065200806
0002b0 40 bf bb 3d a1 98 d6 be a5 d6 cb 3d b1 5f 5c bc
       0.091673374 -0.41913322 0.099530496 -0.013450549
0002c0 83 56 a4 bd 43 0a 92 3d dc 78 cb 3d 10 4f 31 3e
       -0.08024313 0.071308635 0.099351615 0.17315316
0002d0 2e c5 cc 3d 20 ce 72 bd 46 25 24 3d bb d0 9d bd
       0.099985465 -0.059278607 0.04007461 -0.07705828
0002e0 b7 83 fb 3d f6 32 bf 3c 38 fa 0d be ab ba 1d 3e
       0.12280982 0.02333973 -0.13864982 0.1540324
0002f0 bb ae aa 3d ae 07 a4 bd 4b 6d b8 bd e4 33 ad 3d
       0.083341084 -0.08009277 -0.09005221 0.08457163
000300 9f 69 32 3d 57 b1 fe bd 03 d5 79 bd e2 4b 34 be
       0.04355776 -0.12436169 -0.06099416 -0.17607072
000310 02 75 b7 be 88 67 69 bc 5b a4 36 be f0 8a 9d 3d
       -0.35831457 -0.014245875 -0.17836134 0.07692516
000320 4c dd 4b be 95 b5 bb bd 78 e2 37 be 34 c7 74 bd
       -0.19908637 -0.091654934 -0.17957485 -0.059760287
000330 ea 86 c5 bb 4c 7e 3f 3d 9a 27 84 3e ef 96 bb bd
       -0.006028046 0.046751305 0.25811464 -0.09159648
000340 8d 5b 42 be be 2a 3a be 3f af 20 bc 37 14 9f be
       -0.18980236 -0.18180367 -0.009807407 -0.3107011
000350 5a c0 1f bb 4e 3d 56 bb dd 42 fd bd 5f e0 98 3e
       -0.0024376125 -0.003269035 -0.12366269 0.29858682
000360 a6 47 24 bf 35 6e 23 3e 2a 05 3a be a3 4c 06 be
       -0.64171827 0.1596001 -0.18166032 -0.13115172
000370 02 a4 86 bd a0 0d 13 be 93 d2 0c be 3f 36 85 bd
       -0.06574251 -0.14360666 -0.13752203 -0.06504487
000380 21 ba 35 3d 0b 0c e5 bd d5 f4 0d 3c 95 86 22 3e
       0.04436696 -0.11183938 0.00866433 0.15871651
000390 9f ea a6 bd cc 23 18 3e ee 95 aa 3c 6b ed 05 be
       -0.08150219 0.14857405 0.020823445 -0.13078849
0003a0 0e 53 e0 3c ed cc 6b bd 59 cf d4 3d 1b a7 fd bd
       0.027383354 -0.05756848 0.10391111 -0.123853885
0003b0 36 85 c7 b9 af 4d 97 3e b3 66 39 3d df 86 9c bd
       -0.00038055488 0.29551455 0.045263957 -0.07642912
0003c0 35 93 7c bb 01 ac c4 bc 0c 60 88 be cd 30 da bb
       -0.003853989 -0.0240078 -0.26635778 -0.0066586495
0003d0 a8 fa ef 39 c4 90 b0 be 90 99 8c bd 96 82 a8 3d
       0.00045772386 -0.34485447 -0.06865227 0.08228032
0003e0 9f 18 87 be eb 8b 61 3d 6f 0f dd be 6e 42 ce 3c
       -0.26385972 0.055065077 -0.43175837 0.02517816
0003f0 18 89 1d bf c3 0f 9d 3e f0 da 34 3d bb 4f f6 3d
       -0.61537313 0.30676088 0.044154108 0.12026926

lstm.bias_ih_l0 f4 [200]
000000 35 d4 c1 3d 62 4d 57 3c bd d4 e6 bd b3 77 12 bd
       0.094643034 0.013141008 -0.11271045 -0.035758685
000010 fe f8 70 be 69 8b 46 3e de bf 4f 3e 8c 1e b0 be
       -0.23532483 0.19389118 0.20288035 -0.34398305
000020 92 ef b6 bb 8f 47 ca bd 9d 0c 68 bd 0f da a6 3d
       -0.005582758 -0.0987693 -0.056652654 0.0814706
000030 06 94 82 be 06 d6 9b 3e 0f c4 6b bd 94 55 b3 3d
       -0.25503558 0.30436724 -0.057560023 0.08756557
000040 a9 52 a0 3e 45 d8 e0 bd de e2 8a 3d bf a2 3a bd
       0.31313065 -0.1097875 0.06781553 -0.045565363
000050 18 ba 39 3e 6c c4 ed bd db 60 ae 3e 7d 8a 01 be
       0.18137395 -0.1160973 0.3405827 -0.12650485
000060 fa 5e 17 be 8f 34 8c 3e 2b 47 bc 3d df 4d 89 3d
       -0.14782324 0.2738385 0.09193262 0.06704306
000070 0c ac 8e 3c ac 92 e1 3e 5e 34 a9 3d be ec 8c 3b
       0.017416023 0.44057214 0.082619414 0.004300683
000080 a3 a3 3a 3e dd 0d 2f 3d a6 51 e7 bd f4 38 d5 bd
       0.18226485 0.04273783 -0.1129487 -0.104112536
000090 46 46 05 bd 6b 64 2a 3e 26 a1 48 bc fd 7d 60 3e
       -0.03253772 0.16639869 -0.012245452 0.2192306
0000a0 67 1f a3 3d 82 f0 bb bc c4 d4 8f 3d 09 27 42 3d
       0.07964974 -0.022941831 0.07023004 0.047400508
0000b0 a3 32 97 bd 02 83 89 3e 7d 35 4c 3e 52 f5 08 bd
       -0.07382705 0.26857764 0.19942279 -0.03343708
0000c0 67 88 72 3c 10 6e f3 bd 0c f5 84 bd ca b1 a7 bd
       0.014803029 -0.11886227 -0.064920515 -0.081882074
0000d0 ca 3b 23 3d b0 96 3a be 5a e6 76 3d 79 69 6d 3d
       0.03985194 -0.18221545 0.060278274 0.057961915
0000e0 74 51 68 3e 12 ee a9 bd 7a 97 52 bd 62 3e a0 bd
       0.22687322 -0.082973614 -0.05141399 -0.078243986
0000f0 cb 61 d3 bd 23 74 76 bc 37 4b 41 be 93 b9 af be
       -0.10321387 -0.015042338 -0.18876348 -0.3432127
000100 1e 94 7a be 24 ff a4 3d d4 90 be 3c 7d 71 63 3d
       -0.24470565 0.08056477 0.023262419 0.055528153
000110 e9 c7 0e be df ce 92 bd a6 a5 6a 3e 80 1a ad be
       -0.13943447 -0.07168364 0.22914752 -0.3380928
000120 b0 2e 3b 3c 73 6a 8a be ed f9 61 bd 9a a0 0a be
       0.011424705 -0.2703434 -0.05516999 -0.13537827
000130 2f 12 a1 bc e2 56 f3 3c 72 6d a2 3d c0 eb 57 be
       -0.01966199 0.029704515 0.07931031 -0.21086025
000140 d2 f8 33 be c0 ff 82 be 30 cb b6 3e 1f 25 d5 bd
       -0.17575386 -0.25585747 0.35701895 -0.10407471
000150 de 6f 00 be 9b 7b 68 bc 62 7e ab bd a9 98 b6 be
       -0.12542674 -0.014189626 -0.08373715 -0.35663345
000160 1d aa fa 3d 3d b7 58 bd 33 96 b2 3d 19 9c 90 be
       0.12239478 -0.052909125 0.087200545 -0.28244093
000170 16 1d 6d bc d9 a6 be bd d0 e0 02 be 16 55 64 bc
       -0.014472267 -0.093091674 -0.12781072 -0.013936302
000180 bb 95 5d bd 75 0e 4f 3b e3 92 a7 3c 92 d5 50 3d
       -0.054097872 0.003159431 0.020455783 0.050984927
000190 7a d1 11 bd af ad d0 3d c7 ea 01 3c 10 45 c5 3d
       -0.035600163 0.101893775 0.00792951 0.09632313
0001a0 73 fc 0b be 23 41 13 3d 2e d5 96 bc fd a0 9b bd
       -0.1367052 0.03595079 -0.018412199 -0.075990655
0001b0 78 c0 86 3d e6 0b 81 bd 40 e5 03 bd 61 83 b8 3d
       0.06579679 -0.063010976 -0.03220105 0.090094335
0001c0 f0 ad e3 bb 28 5a 01 3f 1d 04 98 3c fc 84 0b bd
       -0.006948225 0.5052819 0.018556649 -0.03406237
0001d0 d8 c7 75 3e d8 5e 88 bd 65 d4 af bc 1a 7e 66 3d
       0.24002016 -0.06658715 -0.021463582 0.056272604
0001e0 7f 53 a9 3d bd 22 a0 bc 77 a5 0b 3e 36 12 9d bd
       0.08267879 -0.019547815 0.13637339 -0.07669489
0001f0 dc e9 b8 3d aa 04 2c 3c 5d f8 1b 3d 36 8f a5 bd
       0.0902898 0.010499159 0.038078655 -0.08083956
000200 60 e9 5a 3d 8c 6d 63 be 68 d0 26 be 7d c8 9b bd
       0.05344522 -0.22209758 -0.16290438 -0.076065995
000210 96 54 01 3c 76 7a 04 3e 91 a2 82 bd 79 49 35 be
       0.007893702 0.1293734 -0.06378663 -0.17703809
000220 7f 2b 99 3d 26 ae e0 3d 6f 94 e8 bd d9 c1 4b be
       0.07478999 0.10970716 -0.113564365 -0.19898166
000230 41 f0 0c be 16 c5 e6 bb cf 24 5e bd 92 d0 2a 3b
       -0.13763525 -0.0070425374 -0.054234322 0.002606426
000240 28 9a c5 bd 20 08 93 3d d4 2d 61 3b 99 3b 7b 3d
       -0.096485436 0.07179284 0.003435959 0.061336134
000250 e7 09 2a 3d 91 9d 81 3d bd d8 15 be 2c 2a a6 bc
       0.04151335 0.063288815 -0.1463346 -0.020283781
000260 6e 0c a7 3d 38 94 a9 3d 49 74 46 be 6f 2f 11 3c
       0.08156668 0.082802236 -0.19380297 0.008861407
000270 75 c1 08 bd f2 f1 44 be b7 45 f0 3b 39 5d 2e bd
       -0.03338762 -0.1923292 0.0073325294 -0.042569373
000280 55 77 4e be 0d 1d 3d 3d 34 af 86 bd 67 19 4a 3e
       -0.20162709 0.046170283 -0.06576386 0.19736253
000290 9e cc db bd 1d 54 b7 3c 42 a8 e8 3e 61 c8 c0 3d
       -0.10732387 0.022378976 0.4544087 0.09413219
0002a0 2e 2c ae 3e 9c 0f 33 bd 21 8f 13 3e ae b3 24 3e
       0.3401808 -0.043716058 0.14410068 0.16084167
0002b0 37 43 1d 3e 0a 88 6a 3d 22 42 f3 bd 33 52 bd 3d
       0.15357672 0.057258643 -0.11877848 0.09244194
0002c0 bf fa 4c 3c d8 d8 1e 3d f6 96 12 bc f0 ff 93 3e
       0.012510954 0.038781017 -0.008947125 0.28906202
0002d0 47 08 8f 3e c7 49 90 3d 7f fd 69 bd 0c 20 aa bd
       0.27936003 0.07045322 -0.05712652 -0.08306894
0002e0 84 51 0a bd ca 10 3e bd da dd 2f 3d 62 5d 91 3d
       -0.033769146 -0.04640273 0.042936184 0.070978895
0002f0 4e 7c 13 3c cb d2 53 3e e9 c1 34 3e 32 c5 08 bc
       0.0090018045 0.2068588 0.17652096 -0.008347796
000300 3b 33 2d 3d d3 85 54 bb 3d df c7 3c ad 33 be 3e
       0.042285185 -0.0032428398 0.02439844 0.371488
000310 a3 c4 2e 3e 7b d5 84 3d d3 ad 65 bd 30 3f 19 be
       0.17067198 0.06486031 -0.056073975 -0.1496551

lstm.bias_hh_l0 f4 [200]
000000 2a 64 29 bd 7c b6 cc 3d 63 cf a0 3d 3d 63 8e bd
       -0.04135529 0.09995744 0.07852056 -0.06952522
000010 68 ac 37 be 2e 41 24 3d e2 2c 51 3d 21 23 52 be
       -0.17936862 0.040101223 0.051068194 -0.20521213
000020 59 7f 36 bd 5b 8b 69 3d 93 16 70 bd 73 b5 ab 3d
       -0.044555042 0.057017665 -0.05861528 0.08384218
000030 19 7b c9 bb 70 b6 03 3f dc 3a b3 3d 6c 52 ba bc
       -0.0061487076 0.5145025 0.08751461 -0.02274438
000040 e4 d2 df 3e 0a 24 06 3e ba 3b b4 3d a2 95 b8 bc
       0.43715584 0.13099685 0.088004544 -0.022532288
000050 c0 30 a4 bd 40 c3 c3 bd 62 3f b3 3e 5f a8 09 be
       -0.08017111 -0.09558725 0.35009295 -0.13443135
000060 a2 fc 74 3c ac 59 4d 3e 27 98 ce bd f5 36 89 bd
       0.0149528105 0.20053738 -0.100876145 -0.06699935
000070 0d d1 96 3c ee 48 d9 3e 85 b0 71 3e 19 93 56 3e
       0.01841023 0.42438453 0.23602493 0.20954551
000080 17 e9 8f 3e 21 36 48 bd 6e 27 10 be 93 2a fc bd
       0.2810752 -0.048879746 -0.14077541 -0.12312808
000090 61 79 95 bd e5 57 02 3c 3e 03 53 bd 87 e1 90 3e
       -0.07298542 0.007955526 -0.051516764 0.28297064
0000a0 ef f6 8f bc 06 df cb bd e0 7f 1e 3d 52 d9 ad 3b
       -0.017573802 -0.09954648 0.03869617 0.0053054476
0000b0 90 c7 fe 3c 6f a2 2a 3e b7 72 99 3d 9a b8 3e bd
       0.031101018 0.16663526 0.07492583 -0.04656277
0000c0 3e c9 b0 bd 78 6a 2b bc 0b e8 04 be b2 4b ea 3c
       -0.08632134 -0.010462396 -0.12979142 0.028600547
0000d0 32 23 53 3e 10 74 ba bd 76 90 af 3d d8 06 bf 3c
       0.20618895 -0.091041684 0.085724756 0.023318693
0000e0 6e 81 c2 3d 3e f2 92 bc 33 bb fd bd 8f dc 10 3e
       0.09497343 -0.017937776 -0.12389221 0.14146636
0000f0 22 f6 4b be 2f 50 0e 3e de 05 68 bd 1d c0 96 be
       -0.19918111 0.13897775 -0.05664622 -0.29443446
000100 84 0b 69 be e4 2f e0 3d 31 c9 10 be 18 c2 16 be
       -0.22758299 0.109466344 -0.14139248 -0.14722478
000110 5a c6 e2 bd 79 0b 3a bd a2 66 6c 3e c7 8b 89 be
       -0.11072989 -0.045421097 0.23086026 -0.26864454
000120 27 55 a9 3d 46 69 56 bd 18 c2 bc bd b8 4b be be
       0.08268195 -0.05234649 -0.09216708 -0.37167144
000130 17 f4 09 3c 9f b9 05 3d a1 c1 b5 3c 9d 40 9e bd
       0.008420012 0.032647725 0.022187056 -0.07727168
000140 6d 80 12 3d 7e 47 1c be 43 53 43 3e 9a e6 2a be
       0.035767008 -0.15261647 0.1907473 -0.1668953
000150 a2 df b5 3c ec 84 1d 3e f4 b6 92 bd cc fa 45 be
       0.022201363 0.15382737 -0.07163802 -0.19333953
000160 7b 8f 88 3d a3 78 65 be b5 12 8e 3e 84 18 8c be
       0.06667992 -0.224093 0.27748647 -0.27362454
000170 7a b4 63 3e a4 c4 fe bd 8c e7 74 be 2d 3c 68 3d
       0.22236815 -0.1243985 -0.23916453 0.056698013
000180 d0 ca c6 bd f4 6a 35 be 3c 9a 7e be b2 3a 25 be
       -0.09706652 -0.1771658 -0.24863523 -0.16135672
000190 f1 36 c8 bc d5 32 4d bd 67 48 7e 3d b2 af be bd
       -0.02444026 -0.050097305 0.062080767 -0.09310855
0001a0 e1 48 d1 3d 5b 3b 5b 3d f0 53 a4 bd 86 da fe bd
       0.10218979 0.053523403 -0.08023822 -0.12444024
0001b0 25 ce 84 3c b9 f4 07 3e 6f 06 b6 bd 25 4e 65 3d
       0.016211579 0.13276948 -0.08887946 0.055982728
0001c0 30 b8 2a 3d 5d 63 aa 3e 36 ae dc bd 3b 85 50 bd
       0.04167956 0.33278933 -0.107754156 -0.05090831
0001d0 b2 59 68 3d d2 32 b4 b9 c6 43 fe bc 76 d5 08 3d
       0.056726165 -0.0003437014 -0.031038176 0.033406697
0001e0 88 e4 19 3e 27 58 ac 3d 18 c1 07 3d f7 22 2c 3e
       0.15028584 0.08415251 0.033143133 0.16810213
0001f0 be 0a 04 3d 01 c7 20 be fa 72 0c be 7d ce 26 bd
       0.032236807 -0.15700914 -0.13715735 -0.040724266
000200 15 d5 07 3e 73 51 37 be ae 19 37 be 20 9a f1 3c
       0.13264878 -0.17902164 -0.1788089 0.029492438
000210 01 03 c6 3d 67 f5 0f 3e 50 8a 07 3e 39 1e 0f be
       0.09668542 0.14058457 0.13236356 -0.13976373
000220 30 6d 8f 3d 5c 10 1a bd 61 71 c9 bd 69 ff ef bb
       0.07003248 -0.037613258 -0.098360784 -0.0073241484
000230 aa a9 06 bd ce bc c5 bd 0d b5 76 bd c9 15 3b 3d
       -0.032876648 -0.09655152 -0.060231257 0.045675073
000240 84 cb 78 bd 7d da ab bd 90 0b 8c 3d 12 63 a8 3d
       -0.060740963 -0.08391283 0.06838143 0.08222021
000250 5a 4a 92 bd 69 87 ee 3d 93 bd 8f 3c 5a 59 8c bd
       -0.07143088 0.11646921 0.01754645 -0.0685298
000260 14 67 c5 bd 2e 5f e7 3c 9b 56 9d bb 1b 32 0a 3e
       -0.09638801 0.028243627 -0.004801584 0.13495676
000270 c2 f0 33 3c 81 6e 89 bd 61 62 a5 bd d3 5b ce bc
       0.010982694 -0.0671053 -0.08075405 -0.02519027
000280 f3 72 48 be 40 30 9d 3d 20 1a 2a bd 86 29 b3 3e
       -0.195751 0.076752186 -0.04152882 0.34992617
000290 92 12 e9 bd 09 eb 96 3d 0a aa 24 3f f2 3d 18 be
       -0.11380495 0.07369048 0.6432196 -0.1486738
0002a0 98 6d 9f 3e 82 41 5c be 32 32 5b 3c ce 78 5b bd
       0.311383 -0.21509364 0.013378667 -0.053582005
0002b0 77 f5 24 3e 68 d1 bd bd b9 f7 a4 bd 15 71 14 3e
       0.16109262 -0.09268457 -0.08055062 0.14496262
0002c0 bc fd f9 bd 93 4b 15 3e 76 57 0a 3e d9 7a 56 3e
       -0.12206599 0.1457961 0.13509926 0.209453
0002d0 0a 93 3d 3e c7 d9 06 3e 1a 60 c5 bc 0c e1 ac bd
       0.18513122 0.13169013 -0.024093676 -0.08441362
0002e0 15 48 10 be 5a 02 1a bd a6 d3 16 be b8 d6 7e bb
       -0.14089997 -0.0375999 -0.14729175 -0.0038885307
0002f0 d2 83 74 bd f3 9f 3b 3d a7 33 de 3d 9d 62 ed bd
       -0.059696026 0.045806836 0.10849696 -0.115910746
000300 b1 7d 2d be fa 6a 12 bd b6 4c d1 3d 04 0b 68 3e
       -0.16942479 -0.035746552 0.102197096 0.22660452
000310 d7 b3 02 bd b3 ac b6 3d 90 8a 9e bc 0f 8d dd bd
       -0.03190979 0.089196585 -0.019353181 -0.108179204

fc.weight f4 [1, 50]
000000 ff ee 5d 3e 80 02 81 3c 40 16 81 bd 2d d3 0d be
       0.21673201 0.015748262 -0.06303072 -0.13850088
000010 53 db 8f 3e 14 42 47 3e 00 07 92 3e 09 19 ac bd
       0.2809702 0.194588 0.28520966 -0.084032126
000020 7e d1 50 be 71 d3 5b be f4 d7 37 be 13 b5 19 be
       -0.20392415 -0.21467377 -0.17953473 -0.1501048
000030 df 3d f8 3d 2d ef dd be 0b 0b 3e be 03 5b 97 3e
       0.12121176 -0.4334654 -0.185589 0.29561624
000040 95 4b a4 be dd ce 61 be 21 28 80 be 57 ff 15 bd
       -0.32088915 -0.22051568 -0.25030616 -0.036620464
000050 b3 0e 21 be 9f 7a 51 be 7e 76 6d 3e a4 b1 ff 3d
       -0.15728264 -0.20456932 0.23189732 0.12485054
000060 e4 b8 4a 3e a2 75 9d be 6b 42 0b be d8 08 23 3e
       0.19797093 -0.3075381 -0.13599555 0.15921342
000070 48 b3 9f bd 06 fb 9a 3e 03 1f 4b 3e 91 b9 a1 be
       -0.07797867 0.3026964 0.19836049 -0.31586888
000080 7c b5 53 3e c7 f5 2d 3c 3b a4 4f 3b 38 a8 97 be
       0.206747 0.01061768 0.0031683582 -0.29620528
000090 7c eb 8e 3d f9 1e 04 3e 16 be da bd e7 57 b4 3e
       0.06978509 0.1290244 -0.10680787 0.35223314
0000a0 d3 c5 79 3e 3f c8 46 3e 5c 26 69 be 22 25 49 be
       0.2439187 0.19412325 -0.22768539 -0.19643071
0000b0 31 db cc bc 0d d7 04 be 8e c0 f7 3d 45 21 90 bd
       -0.025006862 -0.1297266 0.12097274 -0.07037596
0000c0 66 b3 84 bd 3c a5 55 3e
       -0.0647953 0.20863813
