pillow_sales_lstm_model.pth (torch, 50152 bytes, 5 tensors)

lstm.weight_ih_l0 f4 [200, 7]
000000 85 fe 29 bd df f7 83 bc 9c 5e d8 bd b7 43 aa bd
       -0.041502494 -0.016109405 -0.1056492 -0.08313697
000010 de 65 75 be 4c f2 04 be e1 b2 04 be ed 66 9c be
       -0.2396464 -0.12983054 -0.12958862 -0.30547276
000020 51 67 b7 be e1 0f 1c be 5b 77 b0 be ea cd 03 3e
       -0.35821012 -0.15240432 -0.3446606 0.12871519
000030 43 b9 e3 3d fb 6b 53 3c 56 f8 83 bb ab 0e 9e be
       0.1111932 0.0129041625 -0.0040274067 -0.30870566
000040 c4 a5 b4 be 52 43 4b be 4b 4c 9a be 23 2a a1 be
       -0.3528272 -0.198499 -0.30136332 -0.3147746
000050 d1 fb 93 bd 61 d7 8e be fe d6 d6 3e 21 74 ef be
       -0.072257645 -0.27898696 0.419609 -0.46768287
000060 d0 27 4e 3d 3c 7c cd be d1 56 b8 be ca 80 5d be
       0.050330937 -0.40133846 -0.36003736 -0.2163116
000070 b0 33 e8 3c df 60 c9 bf 7c 6a 19 3f 74 81 a4 bf
       0.028344959 -1.5732688 0.5992811 -1.2852006
000080 59 d5 15 3f a9 d7 aa 3e 1c c0 11 3f 67 0a 6e be
       0.5852867 0.3336766 0.5693376 -0.23246156
000090 67 dc 81 3d 44 d9 3d bc b3 ea d6 bc 96 fe 7c bd
       0.063408665 -0.011587445 -0.02623496 -0.06176623
0000a0 03 22 6c be ce b7 42 3d 33 02 84 3e 17 c4 43 3f
       -0.2305985 0.04753857 0.25782928 0.76471084
0000b0 f8 69 8a be 1c 0c 0d 3e 73 c4 28 bf 5a 63 20 bf
       -0.27033973 0.1377415 -0.6592476 -0.626516
0000c0 3b b4 45 3e b7 4d 61 be 1d d1 10 be 4b c4 5a be
       0.19307034 -0.22002302 -0.1414227 -0.21363942
0000d0 03 cf dd bd 08 e1 6b bd a6 e2 36 be f2 7e b6 be
       -0.108305 -0.057587653 -0.17859897 -0.35643727
0000e0 a1 cd 8e be 84 b2 b7 3d fb a2 d3 bc 10 ac 89 bd
       -0.27891257 0.08969596 -0.025834551 -0.067222714
0000f0 86 8a 58 bd 4a 1d 67 be c0 55 b6 3d b2 9b 61 be
       -0.05286648 -0.22569767 0.08903074 -0.2203205
000100 13 8b 60 be b5 9d d4 bd 24 00 66 be cf 0b 94 be
       -0.21928053 -0.10381643 -0.22460991 -0.2891526
000110 39 ba 83 be 25 6d 05 be 57 57 1a 3e c0 b3 89 be
       -0.25728014 -0.13029917 0.1507238 -0.2689495
000120 39 0a b1 3d d9 1f c9 be 34 97 22 3c 95 d3 08 3e
       0.08644528 -0.3928211 0.009923745 0.13361962
000130 1b cb 08 3f 71 c3 8c 3d 98 c6 53 be 94 ec e2 be
       0.53434914 0.06873215 -0.20681226 -0.4432112
000140 ba c4 b7 be 66 56 fd be 05 8f ac be 14 4b 01 be
       -0.35892278 -0.4947998 -0.33702865 -0.12626296
000150 42 85 a7 be 43 7e d5 be 1e aa 2a be 9e 9f b1 be
       -0.32718855 -0.41697893 -0.16666457 -0.3469209
000160 84 e0 b5 bd ba 62 d3 bd b7 f3 d1 bd ea 00 89 3d
       -0.088807136 -0.10321565 -0.10251563 0.066896275
000170 d6 ea cc 3d 8c ed ee 3d ea 3c d2 3d 9e d4 d8 3d
       0.10005729 0.11666402 0.10265525 0.105874285
000180 9f cb 25 be 8e af 26 3e aa dd 0f bc 16 ee e6 3d
       -0.16190957 0.16277906 -0.008780876 0.1127588
000190 96 96 9e bc 51 61 ce bd b0 f9 15 be f3 5a fa bd
       -0.019358914 -0.100771554 -0.1464603 -0.122243784
0001a0 d5 e0 3a 3e 92 68 0d 3f 63 68 b0 bb 6e 08 07 3e
       0.18249829 0.55237687 -0.0053835376 0.1318681
0001b0 9d 60 02 be d9 50 89 3e 40 7d 27 bc b7 8e c4 be
       -0.12732168 0.26819494 -0.010222733 -0.38390133
0001c0 b7 0e fa 3b ca aa 82 3e c8 08 53 3e 0f 50 01 bc
       0.0076311487 0.25520927 0.20608819 -0.007892623
0001d0 32 e1 1e 3c 7f 88 b0 3d 45 f2 f7 3e 29 ae 20 3f
       0.009697245 0.086197846 0.48427024 0.6276575
0001e0 f8 9f 51 3f aa 8f bb be 11 72 3d 3f ee 31 87 be
       0.8188472 -0.36633044 0.74002177 -0.2640528
0001f0 15 ac e9 be cb 41 da bd 0a 4e 8e bd 96 cf ac 3d
       -0.456391 -0.1065708 -0.069484785 0.084380314
000200 a0 6e 32 3e 1d 26 28 bc bf 4b 17 3e 99 d8 02 be
       0.17425013 -0.010262993 0.14774989 -0.12777938
000210 44 80 60 bd a9 78 32 be 93 82 f1 3d 79 3f 17 be
       -0.054809824 -0.1742884 0.11792483 -0.14770307
000220 cc 1a a2 bd 69 98 43 be 03 6c 63 be 57 eb f4 bb
       -0.07915267 -0.19101109 -0.22209172 -0.0074743438
000230 e6 79 30 bd 56 ab 23 bc f7 9b 65 3e 1a 46 07 be
       -0.043085 -0.00998958 0.22422777 -0.13210335
000240 5d 51 c9 bd 12 29 36 be 43 e5 33 3f 2e a4 45 bd
       -0.09829972 -0.17789105 0.702717 -0.048252277
000250 99 04 2f 3e 44 9f 36 3c 47 8f 46 3d ae df e3 bd
       0.17091598 0.01114637 0.048476484 -0.11126648
000260 42 db 62 bd c2 28 a8 bb db 9a 14 3e bc c3 90 3e
       -0.05538488 -0.005131812 0.14512198 0.28274333
000270 f2 94 4a be ef 7b a5 bd 19 51 e6 3c 91 94 22 bb
       -0.1978338 -0.08080279 0.028114842 -0.002480779
000280 e8 f8 20 be 0a 72 2b 3e 3e 5c a5 be 2c 2c 5a be
       -0.1571995 0.16742721 -0.32296938 -0.21305913
000290 29 30 ca be d1 91 95 bd b4 34 cf bd 95 b4 ae be
       -0.39489868 -0.07303203 -0.10117474 -0.34122148
0002a0 55 56 a3 be af 9b 5a bc fc 1c 68 be 3b 59 22 be
       -0.31901804 -0.013342782 -0.22667307 -0.15854351
0002b0 88 30 98 be ee 5b 8e be b0 9e 6b be a8 fc e3 3d
       -0.29724526 -0.27804512 -0.23009753 0.11132175
0002c0 96 32 45 3f 00 e9 bd be e2 c3 bd 3e 0a f2 fc be
       0.77030313 -0.37091827 0.3706351 -0.4940341
0002d0 08 b2 4b be 8d cc 88 3e 97 bd 5b 3e 1a d7 09 3e
       -0.19892132 0.2671856 0.21459042 0.13460961
0002e0 26 b3 e0 be 73 84 a3 be a5 72 93 be 7a eb c4 bd
       -0.4388668 -0.31936988 -0.28798404 -0.09615226
0002f0 72 e1 5c bf 4f bd 86 bd 3e 96 95 bd ad 5b c0 3d
       -0.862815 -0.065790765 -0.07304047 0.09392486
000300 ec e8 42 be 9f 12 5c bd 67 aa 27 be b3 12 a1 3d
       -0.19034165 -0.053728696 -0.16373597 0.07864895
000310 23 ec b7 3e a8 66 67 3e 67 39 9c bd d2 9d 5b 3d
       0.35922346 0.22597754 -0.07628136 0.053617306
000320 d5 b4 0b 3d 7e 23 4e be 7b 7f 52 be ba 26 fe be
       0.034108 -0.20130727 -0.20556442 -0.4963892
000330 cc 50 22 bf 77 3e 1f 3e e9 61 30 bf ed 2c 76 3e
       -0.63404536 0.15551172 -0.688994 0.24040575
000340 97 31 cb 3e da 8a 97 bd 7d 45 e6 bd 6b a7 7e 3e
       0.39686272 -0.07399531 -0.112437226 0.24868552
000350 35 29 9e be fd 73 cd 3c cb be 7e 3e ae 5d ca 3d
       -0.30890813 0.025079722 0.24877469 0.09881149
000360 26 bb 8c bf b8 36 1f bc ae 3b 5e 3e a3 b7 f4 bd
       -1.0994613 -0.009717636 0.21702453 -0.119490884
000370 02 ef 8f 3d 26 66 14 be 21 dc 25 be 79 01 81 3d
       0.07028009 -0.14492092 -0.16197254 0.06299109
000380 7b 3a 84 be 90 01 e7 be 5f 76 10 3e 5c bc f7 be
       -0.25825867 -0.4511838 0.14107655 -0.48385894
000390 29 0c 47 3d 9d 87 c0 3c 4e d1 02 3d a3 e4 1b be
       0.04859558 0.023502165 0.03193789 -0.15223937
0003a0 72 48 10 be e2 f3 87 be eb 5a 21 be 23 c8 0b be
       -0.14090136 -0.26553255 -0.15757339 -0.13650565
0003b0 58 6b 8d be 85 73 1f be e2 8b cf bc cc 78 9a be
       -0.2762096 -0.15571411 -0.025335256 -0.30170286
0003c0 58 43 55 bd 27 60 0a bf fb 21 0f 3e 96 2f 26 3d
       -0.052066177 -0.54052967 0.13977806 0.040572725
0003d0 94 fa b0 be e8 38 02 be 6b 54 43 3e 5a 21 9c 3d
       -0.34566176 -0.1271702 0.19075172 0.07623549
0003e0 d1 7e cc 3c 88 0d 56 3c ed 9a 85 3c 62 6f 9c bd
       0.024962815 0.01306475 0.016309226 -0.07638432
0003f0 39 ac 21 3f 15 29 6c 3f 13 a4 e6 bc da ac 35 3f
       0.63153416 0.92250186 -0.028154409 0.70966876

lstm.weight_hh_l0 f4 [200, 50]
000000 2f a1 55 3e d3 d4 db bd 46 6d df bd 23 52 fa bd
       0.20862268 -0.107339524 -0.10909514 -0.122226976
000010 9a 0f c1 be 76 c2 2e be 1e 27 b2 be d9 81 f3 3d
       -0.37707216 -0.17066368 -0.3479547 0.11890001
000020 db 2d 87 3d 0a 98 3c be 26 4c 04 bd 2c f1 4f 3c
       0.06600543 -0.18417373 -0.032299183 0.012691777
000030 e3 99 1a be 73 1b 1f be 3e 13 25 3d 37 a0 81 3e
       -0.15097766 -0.15537815 0.040301554 0.25317547
000040 34 af 00 3d 9d cf f2 bd 39 83 59 be 31 e6 c5 3d
       0.031417087 -0.11856005 -0.21241464 0.09663046
000050 27 b1 81 be 3b df 26 be 1d 59 93 3e a8 a2 8b 3e
       -0.2533047 -0.16296093 0.28778926 0.27272534
000060 77 f8 69 3e 62 c4 07 3e fd 43 b9 bd 52 5e 8a bb
       0.22848688 0.13258508 -0.09046171 -0.0042226696
000070 19 b0 a2 bd 68 4d c8 3c 00 f8 86 3e 1c d4 ed bd
       -0.07943744 0.024450973 0.26361084 -0.11612722
000080 63 44 15 be 8e 67 3e 3e 78 bb 10 be ff c2 6a 3d
       -0.14576869 0.1859419 -0.14134014 0.05731487
000090 e9 e3 a9 be ed 2e 48 bd a1 5b 94 3b 67 0f 0e 3e
       -0.33181694 -0.048872877 0.0045275246 0.13873063
0000a0 5d 0b e8 3d ff f6 1b be a8 9c 49 3e 4c 65 18 bf
       0.113302924 -0.1523094 0.19688666 -0.59529567
0000b0 64 da 38 3d ba 23 36 be 12 2f d4 3c 7b 0d 30 3d
       0.04513015 -0.17787066 0.025901351 0.042981606
0000c0 ff db ec 3c 09 a3 17 3f bb 7c 8c 3e 97 1a ff bc
       0.028913496 0.59233147 0.27438912 -0.031140609
0000d0 91 26 6e bd 64 16 17 bd 5d 6b af bd 9a 1d 5e bd
       -0.05814225 -0.036886588 -0.085654 -0.05422745
0000e0 10 c9 64 be 1e f9 7b 3e 93 18 8e 3e 5a d2 6d be
       -0.22342324 0.2460675 0.27753124 -0.23224774
0000f0 7e 18 e1 3d 52 22 0d 3e c2 c8 16 be 53 e1 e7 bd
       0.10991 0.13782623 -0.1472502 -0.11322274
000100 74 c6 4f 3e 45 39 bc 3e da 35 f8 3d 5f ad a1 be
       0.20290548 0.36762443 0.12119646 -0.31577584
000110 d7 3b a1 be 9b b6 a3 3e 03 ad b8 be 0a 1d 55 be
       -0.31490967 0.31975254 -0.36069497 -0.20811859
000120 d8 0b c2 3e a3 18 87 3d 14 8b 60 3e d0 4b 89 be
       0.3789966 0.06596496 0.21928054 -0.26815653
000130 1e dd d0 be db bd 94 3e 4a 48 17 bf 58 b5 a3 be
       -0.407937 0.29051098 -0.5909468 -0.31974292
000140 9d 57 53 3f 5b 19 20 be 96 8a 77 be 77 31 b1 3e
       0.8255556 -0.15634672 -0.2417396 0.3460805
000150 bc ea ab be d7 35 b3 3e 12 4b 0b bf 84 b5 9a be
       -0.33577526 0.35002014 -0.54411423 -0.3021661
000160 9a b0 c5 3e fb b1 08 3e 30 c0 ab 3e 87 dc 70 be
       0.386113 0.13349144 0.33545065 -0.23521625
000170 66 f1 25 3e dc 92 f4 be f5 d1 07 be 03 a7 c2 be
       0.16205367 -0.47768295 -0.13263686 -0.38018045
000180 a4 b4 25 be 75 44 de bd 27 b1 08 be 3f 8d 96 be
       -0.1618219 -0.10852901 -0.13348828 -0.29404637
000190 9c 6c 46 bc a4 e7 8c 3c 61 05 5d bd 9f 3f 69 3d
       -0.012110855 0.017200299 -0.053960208 0.05694544
0001a0 2d 63 ad bd d8 55 ba 3d 52 9a df be 47 8d 8e 3d
       -0.08466182 0.09098405 -0.43672425 0.0696054
0001b0 02 82 8b 3e 20 5f 9c bd 34 ef 51 3e 54 71 5a be
       0.27247626 -0.07635331 0.20501405 -0.21332294
0001c0 f0 49 83 3d 55 4a 7c 3d e3 f5 86 3e ea 3a 67 be
       0.06410587 0.061594326 0.26359472 -0.22581068
0001d0 d9 9e 96 3e d3 01 a8 3e d3 80 6e bd fa c0 23 3d
       0.29418066 0.32813892 -0.058228325 0.03997896
0001e0 36 91 21 be 6a a2 06 be e1 d4 06 3e aa 9c f8 3c
       -0.1577805 -0.13147894 0.13167144 0.03034814
0001f0 21 89 26 3c c8 b2 8b 3c e8 a9 08 be b8 10 7a 3e
       0.01016453 0.017053023 -0.13346064 0.2442044
000200 9b d7 1e 3d fb ac 25 3e 85 cb c8 3c 9f fe 73 be
       0.038779836 0.16179268 0.024511108 -0.23827599
000210 07 ad 3a be 4f 39 fd 3d 97 66 87 bd bf 6e ef 3d
       -0.18230067 0.12364446 -0.06611364 0.11691045
000220 ff 60 cf bd 01 6a 0a bc 98 46 92 3d a3 73 41 3e
       -0.101259224 -0.008448125 0.07142371 0.18891768
000230 e1 8f 7a 3e 95 95 06 bc 03 fb ff 3e 39 5f 23 bf
       0.24468948 -0.008214374 0.49996194 -0.63817173
000240 95 79 f5 bc 38 a2 e1 be fd 5c e3 bd 69 a5 2c 3c
       -0.029965201 -0.44069076 -0.111017205 0.010537484
000250 25 d1 0f bc c9 63 f0 3e d3 b0 12 3d b1 d7 1a 3f
       -0.008777891 0.4695113 0.035813164 0.6048537
000260 15 2f b1 bd 2d 7f a6 3d 21 eb 50 be 4e 8b 90 3e
       -0.08651558 0.081297256 -0.20402195 0.2823128
000270 64 29 0c be d1 c3 d3 3e da c8 ea bd ba 91 61 3e
       -0.13687664 0.41360334 -0.11464091 0.22028247
000280 39 de a4 bd 10 02 fe 3e b9 10 9b 3e bd 6d 3c 3e
       -0.08050198 0.4961095 0.30286196 0.18401237
000290 84 fd 3c be 12 84 64 3e 94 02 28 be 82 a6 91 be
       -0.18456084 0.22316006 -0.16407233 -0.28447348
0002a0 b3 2b 82 be eb 21 2a bc 9a 14 4f 3d 79 05 95 3e
       -0.25423965 -0.010384063 0.050556757 0.29105738
0002b0 28 e4 0b bd f4 62 11 3f 8c e0 d5 3e 79 8a 15 bf
       -0.034153134 0.56791615 0.41772878 -0.5841442
0002c0 49 ff 38 3f da 79 41 bd 8f 8e a2 3e e7 d1 bb be
       0.72264534 -0.047235347 0.3174939 -0.3668358
0002d0 fb 24 b0 be 73 19 b1 bc 5a c8 41 3f 8c a8 47 bd
       -0.34403214 -0.02161858 0.7569634 -0.048744723
0002e0 70 50 41 3e cf 42 18 3c 02 33 c9 bd ec 18 25 3e
       0.1887834 0.009293272 -0.09824182 0.16122788
0002f0 44 5c 35 3e 57 f1 c8 bd d7 c0 fc be 01 31 78 3e
       0.17710978 -0.09811657 -0.49365875 0.24237444
000300 f1 d3 0d bf db 75 76 3e 52 cb 37 3f 28 c0 aa 3e
       -0.5540152 0.24068396 0.7179462 0.3334973
000310 18 91 3e 3d 9e 17 21 bd 43 c6 ba 3d 1f 1b 08 3f
       0.04652509 -0.039329164 0.09119847 0.53166384
000320 5e 0a 4d 3f 4f a8 3b 3e b3 32 a7 be 6e ef 1e bf
       0.80093944 0.18325923 -0.32655868 -0.6208409
000330 e2 15 0b 3e bb 41 4c bf 68 b0 d4 bf dd 74 4b 3e
       0.13582566 -0.79787797 -1.6616335 0.19868799
000340 6f 20 54 3f 03 8c 6b bf 66 65 78 bd 30 aa 8b 3f
       0.8286199 -0.92010516 -0.060643576 1.0911312
000350 6e 66 e1 be 9a 1a 3b bf c1 f7 4e 3f 57 6e c1 3f
       -0.4402346 -0.73087466 0.8084679 1.5111798
000360 1f a0 f7 3e bb 8f a4 bf 13 5c 76 bf 35 64 59 3f
       0.4836435 -1.2856363 -0.96234244 0.8491853
000370 e7 03 62 bf 41 11 57 bf 0f c8 c7 3f d4 af 72 3f
       -0.88287205 -0.840107 1.5607928 0.9479954
000380 36 f8 f5 3e 9a c1 93 3e b3 da 78 3f 15 53 6a 3f
       0.48040932 0.28858644 0.9720871 0.91533023
000390 c3 c6 55 bf 16 67 11 bc 5f c4 e3 3f a7 7e 81 bf
       -0.8350641 -0.008874675 1.7794303 -1.0116776
0003a0 d7 6b 06 bf 19 53 7e 3f 9f 13 3c bf 7d 82 8d 3f
       -0.525083 0.99345547 -0.7346744 1.1055447
0003b0 2c e3 af bf b9 7a 74 bf d9 ce a2 3f 11 5a e3 be
       -1.3741202 -0.9549976 1.2719375 -0.44404653
0003c0 4c bb 1e 3f 3f bd 3b bf c8 97 91 3e 86 31 7a bf
       0.6200454 -0.7333564 0.28436112 -0.97731817
0003d0 fc 2e dd 3d b5 6c 04 bf 54 4b 78 bf 7f e5 85 bf
       0.10799977 -0.51728374 -0.9698994 -1.0460662
0003e0 a1 a0 0c 3f 53 6d c3 be 3a da d4 3c 85 75 c2 bd
       0.549326 -0.38169345 0.025982965 -0.09495071
0003f0 1f 3f 82 3e 32 3d 39 be 28 ee ba be 96 48 3b 3e
       0.25438783 -0.1808975 -0.36509824 0.18289408

lstm.bias_ih_l0 f4 [200]
000000 4c d8 3d bd 00 e0 5d 3d 18 4a 09 be 9c 57 5e 3e
       -0.046348855 0.0541687 -0.13407171 0.21713108
000010 f1 66 54 3e 7a 45 9b bc 12 13 ff bd 12 86 8f bd
       0.20742394 -0.018954027 -0.12454809 -0.07007994
000020 39 68 cf 3d b2 22 22 be d0 5e cb 3d fe f9 7f be
       0.10127301 -0.15833548 0.099301934 -0.24997708
000030 d3 55 3a 3d d3 b4 92 bd ee 92 7a bc 6e eb 88 3d
       0.045492005 -0.07163396 -0.01529382 0.0668553
000040 f6 1c 25 3e 0f 95 49 3f 49 d6 2c 3a 43 86 6c 3b
       0.16124329 0.7874307 0.000659321 0.0036090768
000050 5a 58 db 3d 17 2e 5b 3c 4c 65 92 3c 19 ea 1c 3d
       0.10710211 0.013377688 0.017870568 0.03830919
000060 0e d7 e9 bd 35 58 89 3e 9c c9 15 3d eb f3 32 bd
       -0.114179716 0.2682511 0.036569223 -0.04368965
000070 d2 8c bc 3d a5 08 29 3b cc 6f a1 bd 65 ed c2 3c
       0.09206547 0.0025792506 -0.07882652 0.02379484
000080 88 e1 a0 3d 2e 74 6b bc 16 0d b1 bd cc f2 ce bc
       0.07855517 -0.014370961 -0.08645074 -0.025262259
000090 b8 38 af 3d bc 55 ff 3b e6 87 42 3d 2f b9 d6 bc
       0.0855574 0.0077922028 0.047492884 -0.02621135
0000a0 a8 9c d6 3d 9e 46 6d bc 0a 3d 0f 3e 56 21 fc 3e
       0.104790986 -0.0144821685 0.13988128 0.49244183
0000b0 a4 df dd 3d 28 56 1a 3d 4a 0c 8d bd 66 93 a1 bd
       0.10833672 0.03767982 -0.068871096 -0.07889442
0000c0 b1 26 83 3d c3 96 fa 3e 73 ca 6f 3b 8c 79 5a be
       0.06403864 0.48943147 0.0036589175 -0.21335429
0000d0 32 4a 81 3c 87 cb 0a 3f e0 44 ba bc 4f 60 9d 3d
       0.01578245 0.5421681 -0.02273792 0.07684385
0000e0 4f 7a 7b 3d a7 b0 fd bd 64 55 a5 bc 1d 52 31 be
       0.06139594 -0.123872094 -0.020182319 -0.1731648
0000f0 f9 b3 9c bd bc 10 22 bc 20 c3 1d be 9e 8d ab 3d
       -0.076515146 -0.009891685 -0.15406466 0.08376621
000100 dd 4d 81 3c 1f 4b 2e 3e 94 97 4d 3e ab 39 4b 3e
       0.015784198 0.17020844 0.20077354 0.19846217
000110 0a f6 9c bd f8 44 83 bd e1 8c 3f 3e e5 55 75 3d
       -0.07664116 -0.06409639 0.18706085 0.05989637
000120 97 3e 53 bd 39 5d 8e 3e 2b 68 ea bd 89 15 2a be
       -0.051573362 0.27805498 -0.1144565 -0.16609778
000130 e4 00 56 be 34 95 35 3d 46 b9 ef bd 8f 89 88 3c
       -0.20898777 0.044331744 -0.1170526 0.016667156
000140 af 75 88 bd 8a bb 05 bd 58 b5 8e bb 0b df fc 3c
       -0.06663071 -0.032649554 -0.004355114 0.030868074
000150 c6 31 a0 bc 38 6f 91 bd bb 6a 08 be cf cc 4f 3c
       -0.019554984 -0.071012914 -0.13321964 0.0126831075
000160 24 47 47 bd a3 3a 85 be d9 3b 88 3d ce a5 fb 3d
       -0.04865183 -0.260213 0.0665204 0.12287484
000170 de 4c 89 3b 05 a6 20 3e df 9a 0e be 01 8a 75 3b
       0.0041900715 0.15688331 -0.13926266 0.003746629
000180 3f 16 02 3e d6 bf 31 be 9f e8 b0 3e 60 85 19 3e
       0.12703799 -0.17358336 0.34552476 0.14992285
000190 c6 0f 41 be 08 57 ff bd 8a b9 08 3e c7 a0 41 3c
       -0.18853673 -0.12467772 0.13352028 0.011818117
0001a0 cd 1e 28 3d 83 bc 16 3a 24 5b 1c 3d f6 49 37 bd
       0.041045 0.00057501363 0.038172856 -0.04474827
0001b0 79 4c ac bd ca 0b 5d 3d 62 f8 62 bd 07 bc 24 3d
       -0.084130235 0.05396632 -0.055412658 0.04021838
0001c0 15 12 0a be 8e ca 32 3e 84 05 a3 bd 81 4a 25 be
       -0.1348346 0.17460081 -0.079600364 -0.16141702
0001d0 bd e2 10 be c0 a8 21 3e 43 86 9e 3c 31 7d 3a be
       -0.14148994 0.1578703 0.01935113 -0.18211819
0001e0 eb e8 c1 bd b4 09 31 3e 54 0d f1 bc 86 6a 20 be
       -0.09468254 0.17288858 -0.0294253 -0.15665635
0001f0 3d cd 0a be 1d 2d 7f 3e 29 9c d8 3c a3 c8 7e bd
       -0.13554855 0.24919553 0.02644165 -0.06220306
000200 c6 a6 82 3e aa af 8b 3d a8 f1 cc bc be 2f d0 3d
       0.25517863 0.06820615 -0.025017574 0.10165356
000210 24 bb 77 bd 9a 79 8c bd 5d 55 32 3c 56 70 5c ba
       -0.060481206 -0.06859131 0.01088461 -0.00084090733
000220 51 b0 24 3e ea 63 e0 bb dc 89 2a be fc 65 9d 3d
       0.16082884 -0.006847848 -0.16654152 0.076854676
000230 57 d6 8c bd 6e 98 91 3d c1 fb 7b bd 63 5b 2b 3e
       -0.068768196 0.07109152 -0.061519388 0.1673408
000240 db 88 8e 3d b6 36 8d 3d 17 84 d5 3d 7a 0c b7 3b
       0.06959697 0.06895201 0.10425585 0.005586204
000250 65 b5 a3 3c f9 de 40 bd fd a9 3c 3d 97 9b 9d bd
       0.019983957 -0.047087643 0.04606055 -0.07695692
000260 a4 a9 aa bd 3c 30 86 bd d2 84 61 3e a2 1d 11 be
       -0.08333138 -0.06552169 0.22023323 -0.1417146
000270 d0 c4 8d be d5 ab f7 bd 08 c1 f7 bc c4 71 12 be
       -0.2768922 -0.12093321 -0.030243412 -0.1430121
000280 eb 15 d5 3c 7a ef 82 be f2 80 70 bd f5 53 eb 3d
       0.026011428 -0.2557333 -0.05871672 0.11490623
000290 02 77 cd 3d 7e 02 05 3e d5 3e 25 3e 8e a8 8b 3e
       0.100324646 0.12989232 0.1613725 0.27277035
0002a0 f3 1f 02 3e 8a 4f a7 bd 48 4b 02 3d 77 61 8e bd
       0.127075 -0.08169468 0.031810075 -0.06952184
0002b0 20 32 57 bd c4 5f fe bd 6b 68 1d bd 34 9f 21 3e
       -0.052538037 -0.124206096 -0.03842966 0.15783387
0002c0 29 db 15 be 6d cb 2b 3d 8e c3 c3 3d e3 da 26 bc
       -0.14634384 0.04194205 0.095587835 -0.010184023
0002d0 c2 be 99 bd 7e bc a3 3d 29 de b7 3d f7 cb 76 be
       -0.07507087 0.079949364 0.089779206 -0.24101244
0002e0 04 47 a7 3d 97 79 b2 bc 75 1e 92 be 85 ff b2 3d
       0.08167842 -0.021786494 -0.28538862 0.08740143
0002f0 0c 42 8d be 97 5a d7 bd d8 5f c1 bd aa 38 d4 bd
       -0.27589452 -0.105153255 -0.09442109 -0.1036237
000300 35 c6 0c 3e eb 37 0c 3d 62 7a 44 be 92 34 2f 3d
       0.13747485 0.034233015 -0.1918731 0.042774744
000310 c3 db 44 be f6 62 d5 bc b1 5c f6 3d 09 5e ab 3e
       -0.19224457 -0.026048165 0.12029398 0.3347018

lstm.bias_hh_l0 f4 [200]
000000 50 4f 16 3e bd 53 f7 bd d7 7c 5a be 77 a8 51 3e
       0.14678693 -0.12076519 -0.21336685 0.2047442
000010 96 f6 68 3e 3f 4a 09 be 51 30 c6 bb ae a7 24 3c
       0.22750315 -0.13407229 -0.0060482402 0.010049744
000020 2e 6f d9 3d 0c 82 86 bd 04 e3 85 3d 79 55 88 be
       0.10616909 -0.06567773 0.065374404 -0.2662771
000030 f3 10 dd 3d dd 29 86 bd 43 7b a6 3c 14 19 0e 3d
       0.107942484 -0.065509535 0.020322448 0.034691885
000040 7f a8 88 3e 41 85 24 3f e0 da e9 bc 08 b4 08 3e
       0.26691052 0.6426583 -0.02854675 0.13349926
000050 fe 02 c2 3e 1d 93 a3 3d c9 ba 00 3e c7 60 c8 3b
       0.37892908 0.07987044 0.12571253 0.0061150524
000060 aa c5 2c be 1f 23 78 3e 0a 9b 4a be c9 15 5a 3d
       -0.16872278 0.24232148 -0.19785705 0.053243432
000070 e9 8b 8b bc ef 14 84 3b 10 8e 93 bd 05 ec ba bd
       -0.017034488 0.004030816 -0.07204831 -0.091270484
000080 87 1b e5 3d 02 8f bd bd 9f 45 e5 3d 54 0f 40 3d
       0.11186891 -0.09255792 0.1119492 0.046889618
000090 38 b4 3a 3e 48 88 5a bb 99 80 b2 bd 65 ca 70 3d
       0.1823281 -0.003334539 -0.08715934 0.05878677
0000a0 ea 6d b0 bd c6 ef 96 bd 3a 77 09 bd d1 3b f9 3e
       -0.086147144 -0.07369952 -0.03356097 0.4867845
0000b0 b4 11 88 bc b4 7e b3 bd 32 4d 34 be 37 f8 23 3d
       -0.016610004 -0.08764401 -0.17607573 0.040031638
0000c0 80 c4 c0 3d b9 b7 29 3f d8 6a f6 bd 0b ae 74 bd
       0.094124794 0.66295964 -0.120320976 -0.059736293
0000d0 24 f6 94 3d 3e d0 c0 3e 36 8e 48 3d ee d1 2a be
       0.0727351 0.37658876 0.048963748 -0.16681644
0000e0 74 0e e7 3d 9e fb 47 bd 60 41 5b 3b 2e 3a 02 be
       0.112820536 -0.048823945 0.0033455715 -0.12717506
0000f0 5a 4f 21 bd 3d 52 3b bc a0 c5 2c be 0f d8 01 be
       -0.039382316 -0.011433181 -0.16872263 -0.12680076
000100 15 c3 82 3d 2b 29 46 bc d1 e4 a7 3e 76 70 63 3e
       0.06384865 -0.012094776 0.3279176 0.22210869
000110 47 aa eb 3c 22 d1 7e bd 5d 39 f1 3d a3 b7 0b 3e
       0.028767718 -0.062211163 0.11778519 0.1364427
000120 5c d8 c4 ba a5 55 73 3e c2 dd 93 be ad c1 6c be
       -0.0015018093 0.2376314 -0.28880125 -0.23120756
000130 20 d1 1a 3d d1 43 26 3e 83 2c 46 be a4 0a 99 3d
       0.037797093 0.16236807 -0.19352917 0.07472733
000140 37 bf 09 bd 17 bc 83 3d 9a 8b cd 3c d7 3c 45 be
       -0.033629622 0.0643236 0.025090981 -0.1926149
000150 91 2c 42 3e f4 cc 28 be e5 78 f3 bd e0 56 da 3d
       0.18962313 -0.16484433 -0.11888293 0.10661101
000160 ab 9c 44 be 3c 5e 87 be 7a 15 ce 3d f4 58 2d 3d
       -0.19200389 -0.26439083 0.1006269 0.04232116
000170 d1 09 c2 3c 2a d2 44 3e b6 61 70 be 4d 4d c3 bd
       0.023686321 0.19220796 -0.23474774 -0.09536228
000180 c9 54 5b 3e 1b e5 45 bd 21 6a 8a 3e bd ea 5a 3d
       0.21419062 -0.048314195 0.27034095 0.05344652
000190 ee 53 28 be 09 2f c7 3d 55 04 8b bd ee 33 7f 3e
       -0.16438267 0.09725768 -0.06787936 0.24922153
0001a0 d3 8c 1a 3e 02 b0 25 3c ef 81 98 3d 92 5a d3 3b
       0.15092783 0.010112764 0.07446658 0.006450006
0001b0 a3 8d 01 be 85 3c 17 3e d5 e3 db bc 50 8c 9f 3d
       -0.12651686 0.1476918 -0.026842037 0.07790434
0001c0 a8 b9 92 3d 45 bc fb 3d 19 6e 39 be 7b 4f 3a 3d
       0.07164317 0.12291769 -0.18108405 0.045485955
0001d0 48 f0 bd 3d 13 b3 c0 3e 3c 0e 0c 3e f7 02 40 be
       0.09274346 0.37636623 0.13677305 -0.18751131
0001e0 bb f1 b4 3d fd 3f 9f 3d 51 92 42 be 17 a3 95 3b
       0.08835169 0.07775877 -0.19001128 0.004566561
0001f0 f1 21 03 be b8 c3 79 3e b6 57 6f 3c 9f 44 fe bc
       -0.12805916 0.24391067 0.014608314 -0.03103858
000200 03 22 0d 3e 72 86 a9 bd 4b b1 52 be 26 ec 08 3e
       0.13782506 -0.082775965 -0.20575444 0.13371333
000210 d6 c8 13 3d f4 f4 b2 bd 5e 6a e3 bd 6b ff be bd
       0.036080204 -0.08738127 -0.11104272 -0.09326061
000220 74 a9 54 bd bd 23 20 3e d4 4b fb bd 97 8b 4b 3d
       -0.051919416 0.15638633 -0.122703224 0.04969367
000230 2f 38 8a bd 2c 0d 16 3e 0b d1 56 bd 0f 65 f1 3d
       -0.067489974 0.14653462 -0.052445453 0.117868535
000240 62 8f 05 be 7a 3b a0 3d ca ab 8a bc e2 bc 85 3d
       -0.13042977 0.07823844 -0.016927619 0.06530167
000250 b7 0b 01 3d af fe f5 bd d5 fa c0 3d b4 02 4c 3c
       0.031505313 -0.12011468 0.094228424 0.012451816
000260 bb d7 27 be 40 21 c2 3d 41 91 a2 3e 06 9b 1c be
       -0.16390888 0.09478998 0.31751445 -0.15293512
000270 d3 1c 0a be 30 c3 2c be 5a bc 80 3d 7d a5 0a be
       -0.13487558 -0.16871333 0.06285925 -0.13539691
000280 cc f5 a3 3d 58 62 be bd 7c 16 67 3d 5d c4 a2 bd
       0.080058664 -0.09296101 0.056417927 -0.079476096
000290 c6 a8 03 3d 1b 9b 1e bd 50 72 eb 3d 37 b3 a4 3e
       0.032143377 -0.03872214 0.11496413 0.3216798
0002a0 24 07 2c 3e 07 d4 eb bd 83 9e 71 bd 3e 1c 02 bc
       0.16799599 -0.115150504 -0.05898906 -0.007941304
0002b0 72 62 1f 3e 51 8f 54 be c7 6e 19 bd fe 0d 8e 3e
       0.15564898 -0.20757796 -0.03745916 0.2774505
0002c0 a6 1d 82 bc 0d cd 2b bd b0 bd 9c 3d e3 31 84 3d
       -0.015883278 -0.0419436 0.076533675 0.06454828
0002d0 e4 8b 86 bd 22 ed 8d 3d 49 5d d2 bd ba 94 1a be
       -0.06569651 0.06929995 -0.10271699 -0.15095797
0002e0 bd 7d 0c be d1 5c 10 bc 1b 10 3d be f7 0d c8 bd
       -0.1371984 -0.008811192 -0.18463175 -0.097682886
0002f0 80 7d 94 be 23 60 a5 bc ca 38 c7 bd 76 af 86 3d
       -0.29002 -0.020187443 -0.097276285 0.06576435
000300 6e d2 cf 3d b5 6b 0e bd b2 08 06 bd c7 90 0d 3d
       0.10147558 -0.034770686 -0.032723136 0.0345619
000310 e5 7f 44 be 5d fd 10 bd 13 77 a8 3d 5d f7 ba 3e
       -0.19189413 -0.035397876 0.082258366 0.36516848

fc.weight f4 [1, 50]
000000 8b 73 1e be 1d 65 37 bd ab bb db 3c 37 df 96 3e
       -0.15473764 -0.044774164 0.026822885 0.29467174
000010 0c 9d cd be 02 1d 46 3d 1c 50 51 3e a0 ba a3 bc
       -0.4015888 0.048367508 0.20440716 -0.01998645
000020 9b 4c e5 bd cc b4 99 3d d8 a1 83 bd a7 6d b7 3d
       -0.11196252 0.075051874 -0.064273536 0.089564614
000030 ad 5c 1b 3d c0 e7 bd 3d 6c a0 37 be f9 81 2d be
       0.03793018 0.092727184 -0.1793229 -0.16944112
000040 e8 c5 38 be c7 4c 89 3e 21 c9 af 3d 93 8d 1a be
       -0.18044245 0.2681639 0.08583284 -0.15093069
000050 04 aa 35 3e b0 10 4b 3e eb 72 1d be 91 61 c9 bd
       0.17740637 0.19830585 -0.15375869 -0.098330624
000060 c8 ee cd bd 00 d6 65 3e 72 3f f5 3d 36 71 2f be
       -0.100553095 0.22444916 0.11974992 -0.1713303
000070 e9 34 28 3e cf b1 16 3e 09 87 1e be 90 f4 07 3e
       0.16426434 0.14716266 -0.154812 0.13276887
000080 01 ac cf bc 40 50 cc bd 32 c1 6e 3d 99 a1 ea bd
       -0.025350573 -0.09976244 0.058289714 -0.114566036
000090 56 f7 7c 3e 17 40 ac 3d 6c 7f 71 be 1b 49 9c 3d
       0.24703726 0.08410662 -0.23583764 0.07631131
0000a0 d0 18 4e bd 7c c3 0c 3e 8f 65 29 be 40 67 b0 3e
       -0.05031663 0.13746446 -0.16542648 0.34453773
0000b0 84 00 9d bd 9c f0 b0 3d 44 96 f2 3d eb 48 07 3e
       -0.07666114 0.086396426 0.11845067 0.1321141
0000c0 fd d7 41 3e 80 0e 0c bf
       0.18930049 -0.54709625
