LSTM_v3/Models/pillow_features_model.pth (torch, 75476 bytes, 6 tensors)

lstm.weight_ih_l0 f4 [256, 4]
000000 99 88 9c 3d a3 11 d9 3e 48 69 32 be 1b e8 0d be
       0.076432414 0.42396268 -0.17422974 -0.13858072
000010 06 2f 4b 3d 43 8d 4b 3e 74 28 1f 3e 39 be cd 3c
       0.049605392 0.19878106 0.15542775 0.02511512
000020 db c4 b1 be a2 ce e3 bd 42 59 bf be 35 5c 74 be
       -0.347205 -0.111233965 -0.37372786 -0.23863299
000030 19 3d a1 3e d1 9e 15 3c 4b ba bf 3e 4e 42 8f 3e
       0.31491926 0.009132103 0.37446818 0.27980274
000040 f1 77 6e 3b 69 7f 03 3e 23 1b 30 bc a8 da ee 3d
       0.0036387409 0.12841572 -0.010748657 0.11662799
000050 cd 6e 79 3e b5 27 6a 3b 60 b6 37 3e f6 b8 76 3e
       0.24358673 0.0035729234 0.17940664 0.24093994
000060 37 95 f5 3d bc cf 05 3e a9 61 90 3d 32 89 83 3e
       0.11991351 0.13067526 0.07049877 0.2569061
000070 d4 28 bc 3d 69 b1 81 3e b9 6f b0 bd 9c 95 70 bd
       0.09187475 0.25330666 -0.086150594 -0.05873643
000080 6b 07 2e 3e 0c 4f 02 3e ce c9 da 3d 05 28 c9 bc
       0.16995017 0.12725466 0.106830224 -0.024555216
000090 e1 84 7d 3d c5 2f 2c be f1 4a 8e bd 9c 25 cc 3c
       0.0618943 -0.16815098 -0.06947888 0.024920277
0000a0 c1 0a 6b 3b 2e a4 92 3e df e6 9b bd 78 4e 0c be
       0.0035864564 0.28640884 -0.076123945 -0.13701808
0000b0 4a ff 8e 3e b3 f8 24 3d f4 31 fc 3d f5 13 28 3e
       0.27929145 0.04027624 0.12314215 0.16413863
0000c0 57 59 00 3e 3c 28 5e bd db 2f 31 bc cd 03 59 bd
       0.1253408 -0.05423759 -0.010814632 -0.05298214
0000d0 32 da 24 bc 7f 7c d0 3d 25 05 e3 3d 2b 0c 29 bd
       -0.010061787 0.10179996 0.110849656 -0.04127137
0000e0 d6 40 17 3d 04 af 14 3e ba b5 13 3d 8f a2 31 bd
       0.036927067 0.14519888 0.03606198 -0.04336792
0000f0 2d b8 89 3e 0e 86 29 3e ad fa 8a 3e 71 6f 35 3e
       0.26898327 0.16555044 0.27144375 0.17718293
000100 00 7e 80 bc 1b be 1b 3e 95 b8 02 be 1e 77 d6 3d
       -0.015685081 0.15209238 -0.12765725 0.104719386
000110 65 18 6e 3e c1 96 23 bd 5d 5a 85 3e 95 e8 b3 3d
       0.23251493 -0.039938692 0.26045504 0.08784596
000120 fe 9f d3 3d 28 56 00 3e e5 26 00 3e 14 df 3f 3e
       0.103332505 0.12532866 0.12514837 0.18737441
000130 71 83 78 3b dd 08 69 3d 17 05 7b bd 91 36 db 3d
       0.0037920142 0.05689322 -0.06128415 0.10703767
000140 c3 42 2d 3e 2e 6a 07 bd ea 86 f9 3d 42 2b aa 3d
       0.16919999 -0.033060245 0.12183936 0.08309032
000150 55 33 2a 3e 61 4f 97 3d 24 a9 47 3e 27 ce 6a 3d
       0.16621144 0.07388187 0.19498116 0.05732551
000160 91 32 c2 3c 07 d5 29 3e 7d 2a 15 3e 82 c6 12 bd
       0.023705753 0.1658517 0.14566989 -0.035833843
000170 19 c9 86 3e d6 df a4 3e 76 11 0d bd cf 9f 6d bb
       0.263253 0.32202023 -0.03444048 -0.0036258583
000180 0e fe a7 3e 62 53 ef 3d d4 9c 56 3e 61 6a 93 3d
       0.32811016 0.11685826 0.20958263 0.071980245
000190 70 f3 40 3d a7 29 14 3a 6a 48 6b 3c 0d 28 cb 3d
       0.04710716 0.00056519586 0.014360527 0.099197485
0001a0 41 4c 44 3e dd 15 a9 3d 89 7f 1a 3e 1d 43 f7 3d
       0.19169714 0.08256123 0.15087713 0.12073348
0001b0 29 83 81 be 52 12 fc 3d ba 37 83 be b4 e2 85 be
       -0.2529538 0.12308182 -0.25628453 -0.26149523
0001c0 19 f0 fe 3d 75 c5 c7 3d 77 e7 17 3e 24 36 a7 3d
       0.12448139 0.09754459 0.1483439 0.081646234
0001d0 53 fc 37 be 78 43 5c 3d da af bb bc ab 01 dd 3b
       -0.17967348 0.05377528 -0.022911001 0.0067445836
0001e0 cb c4 a0 3d 10 3b 10 3e 6b 60 8e bb 6d 4c df bd
       0.07850035 0.1408503 -0.00434499 -0.10903249
0001f0 1a 46 20 3e 0a e9 a0 3d f8 f2 72 3d ee 0b 6c 3e
       0.15651742 0.07856949 0.059313744 0.23051426
000200 44 13 5d 3e 86 ab bc 3d 67 4b fe bb e4 63 22 3e
       0.2158938 0.09212403 -0.0077604535 0.15858418
000210 56 ef 02 3c 8d 93 11 3d fd d3 5f 3d 01 94 92 bd
       0.007991632 0.035541106 0.054645527 -0.07157136
000220 6a b9 8a bc 93 af f4 3d f2 e9 44 3d 1d 2d cb 3d
       -0.016934115 0.119475506 0.04807467 0.09920714
000230 35 d2 a3 3e f9 12 1a 3f 07 ac 0d 3e e8 85 33 3e
       0.31996313 0.601852 0.13835154 0.1753155
000240 97 ce 3c 3e 58 d8 1d 3e 23 89 b2 bc cd c2 8f 3d
       0.18438183 0.1541456 -0.021793908 0.07019577
000250 e3 eb 1e 3e 32 30 52 3c 09 a6 78 bc b1 de 1a 3e
       0.15519671 0.0128288735 -0.015176305 0.15124013
000260 36 8e 2d 3d d6 6b 68 3e 64 1f d5 ba 21 3b a8 bd
       0.04237195 0.22697386 -0.0016259965 -0.08214403
000270 ac 26 70 3d 23 53 09 bc b7 9f 83 3d 7d 50 34 3e
       0.05863063 -0.008381638 0.064269476 0.17608829
000280 11 e4 3d bd 0b 0e 1b 3e c5 d8 3d be 77 60 2a bd
       -0.04636008 0.15142076 -0.18539722 -0.041595902
000290 a9 36 24 bd 12 3d 6b bc 6c 4e 92 bd 1e f9 9d 3c
       -0.04009119 -0.014357822 -0.07143864 0.019283827
0002a0 a5 f0 69 bd 2c ef 2a bd bb ec af 3c 57 21 69 bc
       -0.057114262 -0.041732 0.021475187 -0.01422914
0002b0 18 ff a0 bd 57 0d cd 3d 87 bd 2e bc a7 70 e7 3d
       -0.07861155 0.1001231 -0.010665304 0.113007836
0002c0 9e 7c 86 bd 60 68 14 bc c7 40 c2 3d 71 23 33 3d
       -0.065667376 -0.009058088 0.094850115 0.04373497
0002d0 e0 f9 60 bd d1 31 b0 3d 05 6e e4 bd 1a 41 31 bd
       -0.0549258 0.08603252 -0.11153797 -0.043274976
0002e0 1d 83 0f 3e 43 25 da bb c9 59 b9 bd df 0a 57 bb
       0.1401486 -0.006657274 -0.09050328 -0.0032812876
0002f0 62 37 35 3e 62 4a 8b 3e 57 94 65 3e e6 ee 0c 3e
       0.17696908 0.27205187 0.22419868 0.13763008
000300 c3 fb 85 3e 74 d7 c4 3e e1 c5 36 3d d8 eb 4b 3e
       0.2616864 0.38445628 0.044622306 0.19914186
000310 a7 fb 2f bd 0f b8 24 3d b9 34 a3 bc 7d 7c 2b 3e
       -0.042964604 0.040214594 -0.019922601 0.16746707
000320 8e db a0 3c 47 d4 0e be 2d 6a df 3d 69 33 2c 3e
       0.019635942 -0.13948165 0.10908923 0.16816486
000330 8b 73 50 3e 37 dd 55 3d 58 13 81 3e a6 2f 54 3e
       0.20356576 0.05221292 0.2521007 0.20721301
000340 9f 0e f7 3d a9 bb d7 3d a4 e2 74 3e cf 4a b7 3e
       0.120633356 0.1053384 0.23914582 0.35799262
000350 2a 50 1d 3f b6 8e 1f 3f 64 a4 06 3f ca 65 05 3f
       0.61450446 0.62327135 0.5259459 0.5210844
000360 4b ee 0a bd c6 d9 ae 3d 40 13 8b 3d 76 87 e8 3c
       -0.03391866 0.08537631 0.06790781 0.028384905
000370 39 2b 91 3e bb c4 82 3e 35 27 39 3e d3 87 fa 3d
       0.2835329 0.25540718 0.18081363 0.12232938
000380 50 34 8a 3e 81 b8 28 3c 24 b8 84 3e 8a 93 2a 3e
       0.26993036 0.010297895 0.25921738 0.16657844
000390 85 03 b7 3d e8 8d b4 3b 83 0b 4d 3e 8b 47 fc 3c
       0.08936218 0.0055100806 0.20023923 0.030795833
0003a0 b9 a6 0d bc bd 99 a1 3d 2b c5 4c 3e b3 21 8d 3e
       -0.008645707 0.078906514 0.19997089 0.27564773
0003b0 01 48 0a bc a1 b0 6b 3e 6d ae c0 bd 07 cc e6 bc
       -0.008440019 0.23016597 -0.09408269 -0.02817346
0003c0 ce 94 e1 39 29 86 3c 3d 61 63 2e 3e 0a 1e bc bb
       0.00043026212 0.046026383 0.17030098 -0.0057408856
0003d0 2e 28 10 3e 17 76 e0 3b 3b de 6a 3d 1c 4a 11 3e
       0.14077827 0.006850015 0.05734084 0.14188427
0003e0 92 f7 63 3e ce 6a 7a 3e fd 97 65 3e e8 bc 7e 3e
       0.2226241 0.24454805 0.2242126 0.2487675
0003f0 ad 7b b7 3d 11 84 a4 3e 22 a2 d5 3d fe eb ee 3c
       0.08959136 0.3213201 0.10431315 0.029165264

lstm.weight_hh_l0 f4 [256, 64]
000000 94 72 19 be 02 2c d0 bc 6b b5 34 3d cc 19 31 3e
       -0.14985114 -0.02541161 0.044118326 0.17294997
000010 de 34 24 3d 84 a3 e1 3e 93 86 1b 3d 06 23 93 bc
       0.04008948 0.44070065 0.037970137 -0.017961036
000020 fa ed 89 be 39 b2 f7 bd a4 ef 30 3e c6 50 99 3d
       -0.26939374 -0.1209454 0.17278916 0.074861094
000030 c1 03 9e bd cc 8c a0 3e e8 49 39 be d6 5c 25 bd
       -0.0771556 0.3135742 -0.18094599 -0.04037174
000040 0e 33 e5 bd c5 c7 03 bc 19 6e fe 3d 06 96 55 be
       -0.111913785 -0.008043234 0.12423343 -0.2085801
000050 9c 18 10 bd 73 88 0a 3e 84 5a bc be f3 3b 47 bd
       -0.03517972 0.13528614 -0.36787808 -0.048641156
000060 11 19 90 3e af e1 86 3e 4a 30 0f 3d fd 24 a6 3d
       0.28144124 0.26344058 0.03495816 0.08112524
000070 66 ed 61 3c a5 dc 02 be 5b 13 15 be c3 bc 2b 3d
       0.01378951 -0.12779482 -0.14558165 0.041928064
000080 1d ba 01 be 7f 30 0b 3e 95 cf 9e be e7 6a 1f bf
       -0.12668653 0.13592719 -0.31017748 -0.62272495
000090 0d 3a 8b be ca f2 f2 3d 1b 4c 30 be bc 06 c3 3c
       -0.27192727 0.118627146 -0.17216532 0.023806922
0000a0 df c3 11 bd 78 eb cd 3c 8b 2f 7f be 82 4e 1c 3e
       -0.035587188 0.025136694 -0.2492048 0.15264323
0000b0 13 99 9f bc a0 e0 3e be fe 59 59 3b 27 60 dc 3d
       -0.019482171 -0.18640375 0.0033165212 0.10760527
0000c0 5b 2e bd 3e fc 91 62 3d d2 4a 98 3d f1 64 46 bc
       0.3694943 0.055315003 0.07436146 -0.012109027
0000d0 5f 3b 09 ba 46 bf a0 3e 89 90 8d bd 33 c7 2d 3d
       -0.0005234982 0.3139593 -0.069123335 0.0424263
0000e0 e3 62 04 3e 59 f5 05 3d f9 00 86 3b 11 85 9b bd
       0.12928347 0.032704685 0.0040894714 -0.0759374
0000f0 5d 56 5d bd 2e 4a ca bd 6d 7f 0a be 67 04 21 3e
       -0.05403744 -0.0987743 -0.13525172 0.15724336
000100 2f df 58 be 5d e0 97 bd f6 98 1c 3e 0e 10 bb bc
       -0.21178888 -0.07415841 0.15292725 -0.022834804
000110 d5 2c aa bd 9f 42 77 3e 60 4a a7 bd 4b 92 07 be
       -0.08309332 0.24146508 -0.08168483 -0.132394
000120 f0 18 da 3d 28 21 a3 3d 1e fd 65 3c dc 31 38 be
       0.10649288 0.079653084 0.014037399 -0.1798777
000130 ef cd d5 3d 00 ce cb bd 5e 8e db bc 89 71 77 3e
       0.10439669 -0.09951401 -0.026801284 0.24164404
000140 9a e8 fe 3d d5 b8 3b be 2b cf 0b be a6 ce 0a bc
       0.12446709 -0.18332227 -0.13653247 -0.00847212
000150 61 45 9c 3d 52 81 2e 3d ff 88 df 3d 25 fb 02 be
       0.076304205 0.0426038 0.10914802 -0.12791117
000160 83 2d dc 3d fe d2 e0 bd d3 15 3b 3e c7 2b 19 be
       0.10750868 -0.109777436 0.18270044 -0.14958106
000170 6f 22 25 bd ef d6 7d 3d ac 75 87 3c 0f 75 2f bb
       -0.04031604 0.061972555 0.016535603 -0.0026772653
000180 14 ac 66 bd 03 4b 73 bd be 62 07 3e 89 86 4f 3e
       -0.05631645 -0.05939771 0.13221261 0.20266165
000190 69 53 b5 bd 58 dc ce bd f2 ba 11 3e 44 f1 9d be
       -0.088538 -0.10100621 0.1423147 -0.30848134
0001a0 e7 0d e6 3d 48 44 44 bc 7f 36 e9 bc 8c b8 06 be
       0.112331204 -0.01197917 -0.028468369 -0.13156337
0001b0 8c 4f 9e 3c ae f8 16 3e 76 bb ea bd ea 45 48 bc
       0.01932504 0.14743301 -0.114615366 -0.0122237
0001c0 e9 b9 8b 3d dc 28 7c bd 3a 29 aa bd cc 04 e1 3a
       0.06822569 -0.061562404 -0.083086446 0.0017167567
0001d0 01 9b 8d be 5b 06 af be 74 de 1a 3d 3f 32 cf 3d
       -0.2765732 -0.34184536 0.037809804 0.101170056
0001e0 c6 36 5f bd 09 72 21 3e 2b d0 0a be 18 cd 2f 3e
       -0.054495595 0.15766157 -0.13555972 0.17168081
0001f0 e3 9f 97 3d f7 a8 f5 3d f5 8d 2f 3e 13 da 87 bd
       0.07403543 0.11995118 0.17143996 -0.06633391
000200 29 5b b2 3d 41 61 0b be d9 5a 53 be 0e 3e 00 3d
       0.08708794 -0.13611318 -0.20640124 0.03130918
000210 62 fa ab be 13 e0 db bd 81 4b db 3d 00 f7 3b 3d
       -0.33589464 -0.10736098 0.107077606 0.045889854
000220 0a ed 15 3e be a8 ee 3c bc 57 d6 3c 6d 10 45 be
       0.14641204 0.029133197 0.026164882 -0.19244547
000230 fc da f3 3d db ff 10 3d 2c 5d 28 be 11 02 8b be
       0.11907002 0.035400253 -0.16441792 -0.27150014
000240 f7 51 a0 bd f0 a3 24 be 81 44 59 3c 5c d6 f9 bd
       -0.078281336 -0.16078162 0.0132609615 -0.12199089
000250 77 17 1b 3d bf ae 88 bd 20 b2 ca bd 2a f3 3d bc
       0.037864175 -0.06673955 -0.09897256 -0.011593619
000260 f1 43 71 3c a5 59 a0 3c db 8b e7 3d 0f 85 2e 3d
       0.014725671 0.019573996 0.11305972 0.042607363
000270 5c ed 1c 3d a8 72 f5 3b 59 db ed bc 8a 19 3e bd
       0.0383123 0.0074904747 -0.029035257 -0.046411075
000280 31 81 f5 3c 48 85 b8 bd 84 7c ef bc 08 68 6d be
       0.02996883 -0.090097964 -0.029234178 -0.23184216
000290 b6 01 bf bd 74 94 7b 3a 48 8b 79 3d 04 c2 c8 3c
       -0.09326498 0.00095970114 0.060923845 0.024506576
0002a0 dd 21 0b be 31 53 d5 3d da 45 7b 3d 48 b3 fb 3d
       -0.13587137 0.10416258 0.061345913 0.122900546
0002b0 22 ff 15 3e b5 b1 10 be 38 6f d8 ba 7e 5c 4b 3e
       0.14648107 -0.1413029 -0.0016512638 0.19859502
0002c0 41 f8 83 3b ce a5 19 3d 3a cf c9 3d 2f 81 7c 3d
       0.004027397 0.03751164 0.098539785 0.061646637
0002d0 6b 99 24 3b f7 bf 12 bd a8 04 a2 bd 65 30 81 3d
       0.0025115858 -0.035827603 -0.07911044 0.06308059
0002e0 74 78 b8 3d 69 30 4d 3d c5 2f 51 3d ac 5a 53 3d
       0.090073496 0.050094996 0.051070947 0.051600143
0002f0 c3 4e 9e bc 87 d0 59 3d 86 7e 25 3d e0 21 0c bc
       -0.019324666 0.053177383 0.040403865 -0.008552998
000300 eb 77 02 3d 23 5f 17 3c 6d 12 bd 3d b1 d5 ce bc
       0.031852644 0.009238991 0.0923203 -0.02524838
000310 68 45 83 3c b5 b7 05 3d 47 4e 9e bd 6a e0 01 bc
       0.016024306 0.0326459 -0.07729774 -0.00792704
000320 a4 f4 0b be 74 ac c9 bc 4e 43 83 bd 7b 93 c4 3d
       -0.13667542 -0.024618365 -0.06409322 0.09598442
000330 d9 45 81 3c 52 7f b9 3d 66 6d 8a bc fa 8e b9 3d
       0.015780376 0.090574875 -0.016897868 0.09060474
000340 7e 4a 7f 3d 1b a8 16 bd b8 2c 93 3d 07 1f a2 bd
       0.0623269 -0.03678141 0.07186264 -0.07916074
000350 49 b3 92 3d e3 a2 cb bb 30 f0 6c 3d a8 af 70 bd
       0.07163102 -0.006214486 0.05784625 -0.05876127
000360 9e 0e eb bd 3d 4f c7 bd e0 1b 85 be b7 c0 6e bd
       -0.114773974 -0.097319104 -0.2599783 -0.058289256
000370 5d 2f 1b bd e3 a8 f0 bd ea 24 a9 3d 97 56 4e 3d
       -0.037886966 -0.117509626 0.08258994 0.050375547
000380 ef 8b ac bd c8 ba ce 3d 7f 0a 92 3d f6 9c 3c 3e
       -0.08425128 0.100942194 0.07130908 0.18419251
000390 7c db 44 bd d2 b0 a6 3d d4 e2 c4 3d e9 c3 f7 bb
       -0.04806088 0.081391945 0.096135765 -0.007561196
0003a0 d0 07 8f 3d 85 dc 00 3e d8 53 26 3e 44 93 30 3c
       0.06983912 0.12584122 0.16242921 0.010777298
0003b0 95 51 a9 3c 6a d0 a8 3d 77 54 ed 3c 50 55 96 bd
       0.020668784 0.08242877 0.02897094 -0.07340491
0003c0 8d 8b e0 bd a4 dd a7 3d d2 b7 ab bd 97 ea ac bd
       -0.10964117 0.081965715 -0.0838467 -0.08443182
0003d0 75 7b 44 bc 0e 5b 9a bd 9d c2 51 bd 5f e2 a5 bc
       -0.011992325 -0.075368986 -0.05121099 -0.020249544
0003e0 74 12 c8 3d 48 18 0a be e2 f3 92 bc 0d c0 bd 3c
       0.09769145 -0.13485825 -0.017938558 0.023162866
0003f0 19 a9 1e bd 86 62 62 bd 7a 60 12 be 23 75 34 3d
       -0.038735483 -0.05526974 -0.14294615 0.044057023

lstm.bias_ih_l0 f4 [256]
000000 4b 92 8f 3e 4f dd 43 3e 9b 84 41 3e fe 8b 96 3c
       0.280413 0.19127391 0.18898241 0.0183773
000010 5e c7 2a bd b4 08 18 bc 62 1d 84 3e ee df 3e 3e
       -0.041694038 -0.009279419 0.25803667 0.1864011
000020 04 bc f4 3c 64 bf b0 bc 20 40 6d 3e e1 14 1a 3e
       0.02987481 -0.021575637 0.23168993 0.15047027
000030 4c 7b 12 bd dc 8e 9b 3d 4b 62 4c 3e 88 ed 20 3e
       -0.035762116 0.07595608 0.19959371 0.15715611
000040 fb 57 ac 3d 9a b3 40 3e ca c5 9d 3d 49 2a 74 bb
       0.084152184 0.18818513 0.07703741 -0.003725665
000050 df 9b 2a bd df 12 dd 3d 5b cb 25 3e d5 b8 28 3e
       -0.041652557 0.10794615 0.16190855 0.16476758
000060 6b d7 33 3e 0c ae 28 3d 07 52 48 3e fb fc 4c 3e
       0.17562644 0.04118161 0.19562541 0.2001838
000070 92 99 07 3d 62 88 16 3e f5 3b 3f bd d1 88 4d 3d
       0.03310544 0.14700463 -0.04668804 0.050179306
000080 59 d8 4c ba 32 1a 75 3d 49 ec ce 3d ed 6a 94 3e
       -0.0007814221 0.059839435 0.101036616 0.28987828
000090 e9 4d 34 3e a5 d5 01 3e 9d f4 b2 3c 95 d1 ef bc
       0.17607845 0.12679155 0.021845156 -0.029274741
0000a0 3c b3 94 3e 00 fd c9 3c d8 fa af 3d f4 dd 0d 3d
       0.29042995 0.024656773 0.085927665 0.0346355
0000b0 d3 31 9a bd 75 a0 1a 3e 35 ce 92 3d 02 c8 2f 3e
       -0.075290345 0.15100272 0.07168237 0.1716614
0000c0 41 a0 83 3e 1d 33 22 3d d7 69 86 bd 22 24 a4 3d
       0.25708202 0.039599527 -0.06563156 0.08014704
0000d0 a5 ff e7 3d f3 b6 c9 3e 03 33 13 3e 10 3d 5d 3e
       0.11328057 0.39397392 0.14374928 0.21605325
0000e0 c2 8a 33 3d 61 ea e0 3d 22 5b 06 3d 36 0b 12 3e
       0.0438335 0.10982204 0.032801755 0.14262089
0000f0 01 dd 02 3d e9 6c 78 3d 4d 4f c3 3d 51 fb 89 3e
       0.031949047 0.06065074 0.0953661 0.26949552
000100 02 35 d2 3d e6 c6 41 bd 94 58 61 3e ad d7 c5 bc
       0.10264017 -0.047308825 0.22006446 -0.024150694
000110 55 56 37 3e 67 c1 11 3d dd b3 91 bc 07 04 01 3d
       0.17904027 0.035584833 -0.01778596 0.03149798
000120 cf d1 20 bc ee 99 32 bc 4b bc 83 3b 45 7e 77 3d
       -0.009815647 -0.0109009575 0.004020249 0.060423154
000130 7d 12 b4 3d 64 4d 75 bd 33 3e 58 3d ca d2 f3 bb
       0.08792589 -0.05988826 0.052793693 -0.0074408995
000140 a4 53 b5 bd 33 00 51 3e a9 71 a4 3d df 28 71 bd
       -0.08853844 0.20410232 0.080294915 -0.05887687
000150 13 b6 55 3d d9 b1 da 3b 41 e9 ba 3d 65 3f b9 3d
       0.052175593 0.006674033 0.09126521 0.09045295
000160 94 30 ed bc 5a 21 91 3d f4 8b 02 3e 1d 45 c0 bc
       -0.028953828 0.070864394 0.127487 -0.023470456
000170 f7 0c c0 3d 60 d5 f8 bc dd b6 3c 3c 48 9c ad 3d
       0.09377473 -0.030375183 0.011518207 0.08477074
000180 aa ff 6a 3d 78 a1 01 3e 75 a9 ef 3d 9d f6 45 3d
       0.057372727 0.12659252 0.11702243 0.048330892
000190 27 51 a7 bd d3 aa 99 3d 19 ff d9 3d fd a4 37 3d
       -0.081697755 0.07503285 0.10644359 0.04483508
0001a0 7a 0c e3 3d 87 58 45 bd f7 94 ac 3d 63 1c 1e be
       0.11086364 -0.04818013 0.0842685 -0.15440516
0001b0 45 1a 37 3d ba 3d 52 3d 05 09 c7 3d d6 4d 0b 3e
       0.044702787 0.0513284 0.09718517 0.13603911
0001c0 c8 2c 98 3c 5c 3a 8f bd cc d5 ef 3a 3b ae 29 3d
       0.01857604 -0.06993553 0.0018297969 0.041425925
0001d0 c0 38 c6 3d e5 a5 05 be 77 eb cd 3c af 36 32 3d
       0.09678793 -0.13051565 0.025136692 0.04350918
0001e0 86 cc 4f bd 40 5d bb 3c 43 5f a6 3d 57 08 87 bb
       -0.050732158 0.022871614 0.081236385 -0.0041208672
0001f0 38 53 ad 3d b7 23 09 3d bb d4 a8 bb 12 d3 a0 bd
       0.08463138 0.033481326 -0.0051523126 -0.078527585
000200 1b a5 6d 3c 7e e1 01 3d 3e 05 de bd e4 52 ff bc
       0.014504696 0.031709187 -0.108408436 -0.031167455
000210 ff 40 76 bd c4 81 a4 3d c8 80 d4 bd 67 e9 9a 3d
       -0.06012058 0.08032563 -0.103761256 0.07564049
000220 f5 b9 2f be 20 8a 42 3d 27 47 d8 3d d7 4d c9 3d
       -0.1716078 0.047495008 0.10560446 0.098293
000230 c4 0c 30 bd df 2b a4 3d 8f 4a 1c be c3 8f 99 3d
       -0.042980924 0.0801618 -0.15262817 0.074981235
000240 87 6a 47 bd 1a 3b be bd bf e7 4d 3d 7c 99 07 be
       -0.048685577 -0.092886165 0.05026984 -0.13242143
000250 a6 f2 67 bd c6 83 15 3e 61 3e 9c 3b c8 72 8a bc
       -0.056627892 0.14601049 0.0047681783 -0.016900435
000260 bc 5f 80 bd fc d8 ef 3a e7 28 b1 bd 0c 9f 12 3d
       -0.0626826 0.0018298919 -0.0865038 0.03579621
000270 2d 59 31 bb 38 61 7c bd b5 7e e2 bd 79 2c e2 3d
       -0.002706121 -0.061616153 -0.11059324 0.11043639
000280 13 0a b7 bd 91 78 d8 3d 5e 5a 57 bd 87 ce cc bd
       -0.089374684 0.10569871 -0.052576415 -0.100003295
000290 b1 f7 07 be c1 fc 2b bd 95 3c 20 be 86 73 2d 3e
       -0.1327808 -0.04198909 -0.1564811 0.169386
0002a0 c8 4d e5 bc 38 3d 07 3d 0b 75 87 bd 04 65 5a 3c
       -0.02799119 0.033017367 -0.06614121 0.013329748
0002b0 86 c3 c8 3d eb db e3 bd 57 56 15 3e 79 42 be 3d
       0.09802918 -0.111259304 0.14583717 0.092900224
0002c0 0d 31 14 3d 49 74 05 bd a5 a0 45 3d c8 6f b0 bc
       0.03617959 -0.0325816 0.048248906 -0.021537676
0002d0 e1 03 c0 3d ae 13 23 3b 3b 9a 3d be 20 4d 2e be
       0.0937574 0.0024883556 -0.18515866 -0.17021608
0002e0 41 c4 70 3a da cc 7d bd 03 5c 2c 3d 4d 96 83 bd
       0.00091845175 -0.06196294 0.042079937 -0.06425152
0002f0 71 a9 a1 bd 35 ab f6 bd 48 1c 51 3d 6e 01 a6 3a
       -0.078936465 -0.12044374 0.05105236 0.0012665221
000300 2d cd 80 3e f9 2e 95 3d 6b 9e 11 3d 42 4e fc 3d
       0.25156537 0.0728435 0.03555147 0.12319614
000310 a7 d7 33 3e 5e bc 47 3e fb 2d 04 3d 70 02 d7 3d
       0.17562734 0.1950545 0.032270413 0.10498512
000320 4c 06 1a 3e d1 a6 af 3d c8 b9 6e 3e 4b dc 67 3e
       0.15041465 0.085767396 0.23313057 0.22642629
000330 77 58 51 3d c1 10 4f bd b3 fe 52 3e c4 b6 71 3d
       0.051109757 -0.050553087 0.20604973 0.05901219
000340 2b cb d2 3d 7c 9f d2 3c 1d be c9 3d 49 60 19 bc
       0.102926575 0.025710814 0.09850714 -0.009361335
000350 8e 2e 5e 3d cd 4d 2c 3e c6 d3 2e 3e 25 8b f8 3d
       0.054243617 0.16826554 0.17072973 0.12135915
000360 7c f5 8d 3d b7 c4 c5 bc 40 41 24 3e fb 14 d8 3d
       0.06931588 -0.024141653 0.16040516 0.10550877
000370 ed 2c 8b bd 9e e6 0f 3e c0 df 0b 3e 55 c5 2d bd
       -0.06795678 0.14052817 0.13659573 -0.04242452
000380 af 23 9c 3d 6c 29 93 3d 2a f8 9f 3d 3c 9b 11 3f
       0.076239936 0.07185635 0.078110054 0.56877494
000390 7f 69 de 3d 6c 37 cc 3c 88 ca d0 3d 16 f6 84 bd
       0.108599655 0.024928771 0.1019488 -0.0649225
0003a0 b0 20 b2 3e 17 ef a1 3d 76 11 05 bd 08 93 93 3d
       0.34790564 0.07906931 -0.032487355 0.07205778
0003b0 43 23 96 bd 15 6b c0 3c bb a4 18 3e 80 d0 0e 3e
       -0.073309444 0.02348856 0.1490659 0.13946724
0003c0 7b c5 97 3d 41 ef 22 3e cc fc 48 3d ac 46 4d bd
       0.07410713 0.1591158 0.04906921 -0.050116226
0003d0 7a af 87 3e b5 a1 21 3f 8b bb e6 3c d7 7c c4 3d
       0.26501065 0.6313737 0.0281656 0.09594124
0003e0 c8 ca 26 3d 3e 03 cd bc 4f a4 58 3d 4d f5 2c 3e
       0.04072073 -0.02502596 0.052891072 0.1689045
0003f0 81 ee 7c 3d c5 15 ee 3d 32 59 81 3e d9 82 e5 3d
       0.061750893 0.11625246 0.25263363 0.11206598

lstm.bias_hh_l0 f4 [256]
000000 b1 8b 70 3e 23 05 7b bc 7b b0 a3 bc 44 15 28 3e
       0.23490788 -0.015321049 -0.019981613 0.16414362
000010 9e f2 09 3e 7b df 96 3d 9c 6c 8e 3d 06 b6 e5 3d
       0.13471457 0.07366844 0.06954309 0.11216359
000020 46 c3 7d 3c ac dd 2a bd 5e fb 4e 3d 76 74 98 3e
       0.015488451 -0.04171531 0.05053269 0.29776353
000030 bd d0 eb 3d ba e2 ec 3d ed 5e a9 3d 8d 8a a3 3d
       0.11514423 0.11566682 0.08270059 0.07985411
000040 cf e0 2f 3d 3e e0 8c 3d 46 18 03 3d 30 a1 14 3e
       0.042939004 0.06878708 0.03200557 0.14514613
000050 77 92 b5 bc a9 f7 e1 3d 4a 3b 47 3e 7d 47 93 3e
       -0.022164566 0.110335656 0.1945621 0.2876548
000060 59 fd bb 3c a8 28 ff 3d ab 58 2a 3e 11 f5 54 3d
       0.022947954 0.124589264 0.16635387 0.051991526
000070 ad 0e 33 3d ac 5c 4b 3d 29 db 43 3d 3e a9 07 3a
       0.043715168 0.049648926 0.04781643 0.00051750604
000080 54 e2 78 3c a9 52 a6 bc c2 ae a6 3c a1 46 a6 3e
       0.01519068 -0.020303087 0.020347003 0.3247576
000090 68 43 04 3d aa 9f c2 3d 21 42 b0 3d 22 8e 6a 3d
       0.032290846 0.0950311 0.08606363 0.057264455
0000a0 55 a4 a2 3e 40 33 b4 3c 2c 34 fe 3c c4 11 e0 3d
       0.31766 0.021997094 0.031030737 0.109408885
0000b0 27 56 eb 3d 69 55 30 3e 2f bb 99 3d de 65 80 3e
       0.11491042 0.17220081 0.075064056 0.25077718
0000c0 2c be 94 3e 9a a2 b6 3c a2 7c 0c 3e e6 17 f3 3d
       0.2905134 0.022294331 0.13719419 0.11869793
0000d0 cc 35 88 3e 56 64 05 3f 34 d1 3b 3b 3e c3 22 3e
       0.26603544 0.52106225 0.002865863 0.15894791
0000e0 6f 20 84 3d 33 49 26 bc 4e 39 c9 bc ac c8 2e 3e
       0.06451499 -0.010149288 -0.024563458 0.17068738
0000f0 7d 2f 8e 3d a0 0c 00 3d ae 47 db 3c 7a b6 91 3d
       0.069426514 0.03126204 0.026767578 0.07114883
000100 3b 6c 91 3e 3a 4f 3f 3d c8 54 1e 3e df 12 73 bd
       0.28402886 0.046706416 0.15462029 -0.05934417
000110 2c 31 58 bc e7 b7 59 3d ee 60 77 3d 32 14 3c bd
       -0.013195317 0.0531539 0.060395174 -0.045917697
000120 71 1c 16 3e 09 4b 29 3d 75 67 15 3c 0c 46 f8 bd
       0.14659287 0.041331325 0.009118904 -0.121227354
000130 ff 59 17 3d 6b 7f fc bc 9c 04 f5 ba df 1f 85 3d
       0.03695106 -0.030822476 -0.001869339 0.065002196
000140 92 06 eb bd 36 7c c5 3c 5d 40 b0 3c 36 43 b4 3c
       -0.114758626 0.02410708 0.021515066 0.022004705
000150 e7 5b c3 bd e2 e7 6b 3d c9 03 cb 3d 9d ef 9b 3d
       -0.09539013 0.057594188 0.09912831 0.07614062
000160 8e c1 92 3d 8c 3a 9a bc 50 99 ac bd 34 bf 2b 3d
       0.07165824 -0.018826745 -0.084276795 0.041930392
000170 22 b6 53 3d 79 4e 79 bd 22 3f 92 3d e9 e3 35 bd
       0.051687367 -0.060865853 0.07140948 -0.044406805
000180 43 43 03 3c a7 5b 16 3c 0f cb ab bc a4 fd 21 3e
       0.008011642 0.009177125 -0.02097085 0.15819412
000190 4d 4b a9 3d 44 d2 b1 bd c9 75 9f bd 91 41 d2 bd
       0.082663156 -0.08682683 -0.077861376 -0.10266412
0001a0 60 02 da 3d 89 cb 62 bd 71 6d b8 bd 0a a5 c2 bd
       0.10644984 -0.055369888 -0.09005249 -0.09504135
0001b0 89 4c 88 3d 70 4f 1e 3e 9b 61 0b 3d 41 ef 02 3e
       0.06655223 0.1545999 0.03402863 0.1278658
0001c0 64 e6 84 bd c6 03 b4 bc ac 34 7c bd fa 23 c4 3d
       -0.06489256 -0.021974456 -0.06157367 0.095771745
0001d0 f0 ad 69 3d e5 a9 e2 bd 8f 20 e1 bd c9 e8 a3 3d
       0.057050645 -0.11067561 -0.10992538 0.080033846
0001e0 62 f9 72 bd a0 4d df bc b1 6c cd 3d ff 55 e6 3d
       -0.05931986 -0.027258694 0.10030497 0.11246871
0001f0 fd 70 08 3d d8 2a 45 bd 30 71 f6 bb 03 02 93 3c
       0.03331088 -0.048136562 -0.007520817 0.017945295
000200 b3 bb e0 bd 43 55 21 3b 10 08 e0 bd 40 83 05 3e
       -0.10973301 0.002461747 -0.10939038 0.13038349
000210 20 f7 92 bd b0 23 b5 b7 24 4b 19 bd 20 c9 23 3d
       -0.071760416 -2.15935e-05 -0.037425175 0.03998673
000220 1d 29 26 3d d9 8c c3 bd 8b e4 27 3d ce ee 34 3c
       0.040566552 -0.09548349 0.04098944 0.011043264
000230 0b c5 84 3c cd c4 ab 3d eb 7d 5e be a4 ee 0c 3e
       0.016207239 0.08387146 -0.21727721 0.13762909
000240 97 b0 16 be b0 22 98 3d b4 86 01 bb d1 ee bc bd
       -0.14715801 0.07428491 -0.0019764127 -0.09225238
000250 5f ef 41 bc c0 52 cd 3b 87 d2 28 be 59 8c 59 bd
       -0.011836856 0.006265968 -0.1648656 -0.05311236
000260 9e bd 0a 3e 0a 25 70 bd 7a 6f 45 3d 80 ad 14 3d
       0.13548896 -0.058629073 0.048202015 0.036298275
000270 a0 48 0d 3e 98 19 1b 3d 66 45 3d 3b 42 fc d3 3b
       0.13797235 0.037866205 0.0028880476 0.0064692805
000280 11 e2 36 bd 19 0d 9d bc 7a 57 cf bd 1f 86 d6 bd
       -0.044649187 -0.019171285 -0.10124107 -0.104748
000290 86 36 ea bd 00 f3 31 3e 08 20 7e bd 88 3f e2 bb
       -0.11436181 0.17377853 -0.062042266 -0.006904546
0002a0 48 8f 8b 3c 92 b8 93 3d 0c a7 30 be 8c d9 e0 bd
       0.017036095 0.07212938 -0.17251223 -0.10978994
0002b0 7c fb 8b 3d 51 26 0d bc 82 cd c8 3d f4 7b 0e bc
       0.06835076 -0.008615092 0.098048225 -0.008696545
0002c0 b7 34 e3 3d 0d 8a 21 3e 99 03 99 3d a0 1d 0f be
       0.11094039 0.15775318 0.07471389 -0.13976145
0002d0 bf a9 43 bc d9 c4 df 3d 6b 33 fb bc fd 1f 12 be
       -0.011942326 0.109262176 -0.030664166 -0.14270015
0002e0 b0 30 f0 3d 4e ce f8 bc e6 30 04 3e 7f 93 d0 3d
       0.117280364 -0.030371811 0.12909278 0.10184383
0002f0 45 72 ce bd f7 f9 b0 bd 2e a2 c9 bd 6f 46 aa 3d
       -0.10080389 -0.08641427 -0.098453864 0.083142154
000300 40 e6 1f 3e cd 7b b0 bc de fd ce 3d 7e 8a 95 3c
       0.15615177 -0.021543408 0.10107015 0.018254515
000310 f5 9e 1a 3e c6 0a bc 3d 96 9e 3b 3e 1f d6 37 3d
       0.150997 0.09181742 0.18322214 0.044881936
000320 73 bd 1d 3c 95 e0 00 bd 7a 52 23 3e 9f 71 24 3e
       0.009627688 -0.031464178 0.15949431 0.16058968
000330 05 2f 04 bd 01 cb a7 bc f8 08 d8 3d 2d 64 fa 3d
       -0.032271404 -0.020482542 0.10548586 0.12226138
000340 31 58 e5 3d b1 dd 35 3d b4 02 36 bd c2 97 aa bd
       0.11198462 0.044400875 -0.04443617 -0.08329727
000350 1a a5 0c 3e 6e 0b c5 3d 9e a0 30 3e 5e 30 69 3e
       0.13734856 0.09621321 0.1724877 0.22772357
000360 56 d0 66 3d 60 e7 1d 3e 4c 05 82 3b 9d df 09 3e
       0.05635103 0.15420294 0.0039679166 0.13464208
000370 c3 bb aa b9 ef ab ad 3d ec ee a2 bd ed 5f 36 3e
       -0.0003256482 0.08480059 -0.07955727 0.1781003
000380 0d a5 9c 3c 02 2f e3 3d 05 56 19 3c ca 1e ce 3e
       0.019121671 0.110929504 0.009358888 0.40257865
000390 57 f6 94 3c 64 c4 5f 3d 25 d5 6b 3b 20 ad 0e 3d
       0.01818387 0.054630652 0.0035985198 0.034833074
0003a0 22 3b 00 3e 4d 46 a9 3d bf de ed 3d e9 f6 c3 3c
       0.12522557 0.08265362 0.11614751 0.023921447
0003b0 59 1b bf 3d 29 da 2a 3e 7c cc 4b bd 51 3e fd bb
       0.09331388 0.16684784 -0.04975556 -0.007728376
0003c0 2e 94 83 3e 2a 5c 9e 3d cf d8 90 bc 83 87 d4 bc
       0.2569899 0.07732423 -0.017681507 -0.025943523
0003d0 a1 c7 86 3d 51 d1 23 3f f5 af 03 3d ec 1e 75 3e
       0.06581045 0.63991266 0.032150228 0.23937577
0003e0 87 a1 b2 bc 2a 0c 29 bc fa 75 d9 3d 77 ad 33 3e
       -0.021805538 -0.010317842 0.10618205 0.1754664
0003f0 6d e1 30 3d 03 68 d1 3d 0b a8 2d 3c 73 b1 16 3c
       0.043183733 0.10224917 0.010599147 0.009197581

fc.weight f4 [4, 64]
000000 c8 b1 d6 3d 02 a6 05 3e 2e bb 10 be ed 24 23 3e
       0.10483128 0.13051608 -0.14133903 0.15932055
000010 0d 24 ff 3d 0c 12 05 bd 78 85 f7 3d dd 28 2f 3e
       0.12458048 -0.032487914 0.12086004 0.17105432
000020 f2 31 ba bd a2 aa d1 bc 55 d3 b3 bd 19 a7 1e 3e
       -0.090915576 -0.02559406 -0.08780543 0.1549343
000030 af bf e7 bc 42 12 74 3d da 46 c5 bd b7 f8 c8 3d
       -0.028289644 0.059587725 -0.096326545 0.098130636
000040 8e 8f 61 3d ca 94 d3 3d a1 1b e9 3d 7d b7 83 bd
       0.055068545 0.10331114 0.11382223 -0.06431482
000050 62 3d ef bd 1d 57 fd 3d 6c 82 55 bd 1d 13 0a be
       -0.1168163 0.12370131 -0.052126333 -0.13483854
000060 b9 94 06 3e 16 38 b1 3d c2 02 e8 bc da 03 9e bc
       0.1314267 0.08653276 -0.028321628 -0.019288946
000070 6a c4 23 3d 91 56 0d 3e 9b 64 08 be 86 13 f8 3c
       0.039982237 0.13802554 -0.13319628 0.030282747
000080 85 b6 15 be 94 72 f3 3d 37 8b fb bd 6a db b3 3c
       -0.14620407 0.118870884 -0.122824125 0.02195521
000090 b6 51 8c 3d 81 01 c6 3d 0c c1 ee 3c 48 ea eb 3a
       0.068515226 0.096682556 0.029144786 0.0017998898
0000a0 58 5b 29 be 57 ce 0b 3e ab eb 55 3d e8 a8 45 bd
       -0.16538751 0.13652931 0.052226704 -0.048256785
0000b0 ab 75 f1 39 a9 0a 11 3c 31 fb 85 bd d6 be f9 bd
       0.00046054772 0.008852639 -0.065420516 -0.12194602
0000c0 c2 41 fe 3d 69 d6 36 3d 77 21 63 bb 68 5b 04 be
       0.12414886 0.04463807 -0.0034657398 -0.12925494
0000d0 14 04 4b 3e 66 e1 04 3f 99 39 82 bd 83 3d 47 bd
       0.19825774 0.5190643 -0.06358642 -0.048642647
0000e0 6f c4 70 3d 0d 35 5e bc 29 68 10 3e 29 22 16 3d
       0.058781084 -0.013562453 0.14102234 0.03665367
0000f0 75 97 17 be 15 d5 1c be a3 26 2a be 39 c1 9a bc
       -0.1480387 -0.1531566 -0.16616301 -0.018890964
000100 88 05 98 be bb 78 09 3e 6c ec 8d 3c f3 df 8a 3c
       -0.2969172 0.13424961 0.017324649 0.01695249
000110 5f 9c cf 3d c6 10 c0 3d 73 04 00 be c2 40 a7 3d
       0.10137247 0.09378199 -0.12501697 0.081666484
000120 49 b2 b6 bd f5 ca 84 3d 9a 17 55 3e d6 9f f9 bc
       -0.08920724 0.064840235 0.20809785 -0.030471724
000130 14 fb 71 bd 3c f4 33 3e e1 0b 38 be cf 9c 09 3d
       -0.059077337 0.17573637 -0.17973281 0.03359681
000140 6f d2 3b be b5 a7 79 3b eb 0a b2 3c 76 d4 22 be
       -0.18341993 0.0038094346 0.021733722 -0.1590136
000150 97 d7 e1 bd df 18 20 3e 29 fe ff bd 5e 1b 62 be
       -0.110274486 0.15634488 -0.12499649 -0.22080752
000160 31 34 21 3e b2 3f 41 3d f1 b1 4b 3d 4c 13 b4 bd
       0.15742566 0.047179885 0.049730245 -0.08792743
000170 a5 c3 8b 3d 41 ee 51 bd 08 23 64 bd 50 df 8d bd
       0.068244256 -0.051252607 -0.05569747 -0.06927359
000180 06 e7 bc bd e3 91 a1 3d 91 3e b3 bd cd de 81 be
       -0.09223752 0.07889154 -0.08752168 -0.25365296
000190 b4 78 4e be c7 b3 03 3e fd 68 40 be a0 77 85 bc
       -0.20163232 0.12861548 -0.1879005 -0.016292393
0001a0 f5 b1 8a be 69 8b 9e 3d 79 d5 62 bd 9c cb a1 bd
       -0.27088895 0.07741434 -0.055379365 -0.079001635
0001b0 5a 42 4c bd 60 66 44 be 15 62 16 3e c6 df d6 bc
       -0.049867965 -0.19179678 0.14685853 -0.02622975
0001c0 a0 6f 8f 3e 79 79 39 3e fc d9 ca bd 0d dd a9 bb
       0.2801485 0.18112744 -0.099048585 -0.005183822
0001d0 c5 84 2c be 51 53 14 3f c1 8d 0f be e6 8b 27 be
       -0.16847523 0.5793963 -0.14018919 -0.16361961
0001e0 de 95 7d 3d b4 54 5b bd 64 1a 54 bc b0 a4 48 3e
       0.061910503 -0.053547576 -0.012945745 0.19594073
0001f0 42 04 8e bd 7b 8a 8d 3b f1 8e 35 be b8 72 3e 3e
       -0.06934406 0.0043194867 -0.17730309 0.18598449
000200 20 cf f1 3d 6a 1e d7 3d 7b a2 4f be 8b 69 85 3d
       0.11807084 0.10503848 -0.20276825 0.06514271
000210 57 5d f1 3d f9 da 1a 3d 89 df ab bd 1a da 9f 3d
       0.11785381 0.037806485 -0.08392245 0.078052714
000220 0d ba 01 be 0a f7 f0 3c bc 11 55 be c1 58 4d 3e
       -0.12668629 0.029414672 -0.20807546 0.20053388
000230 78 e3 27 be 67 17 a8 3d f6 c9 86 3d f3 be db 3d
       -0.16395366 0.08207589 0.0658149 0.1072978
000240 40 62 18 bd e0 02 3e bc 7e c0 14 3e 75 ea a7 bc
       -0.037203074 -0.011597365 0.14526555 -0.02049754
000250 7c 6a 5d bd b0 e8 8e 3c 9d 42 80 3d 42 42 5b bd
       -0.05405663 0.017444938 0.062627055 -0.053529985
000260 a5 df f0 ba 9c fe d6 3d f1 5a dc 3c c4 ad 33 3e
       -0.0018377198 0.10497782 0.026898833 0.17546755
000270 91 08 9d bd 10 d8 4a 3d 7e 79 f8 bc 6d 72 dc 3d
       -0.076676495 0.04952246 -0.03033137 0.107640125
000280 ff 5a 3e bd 15 cc ca 3d c0 5a 5e 3d 26 34 03 3e
       -0.0464735 0.09902207 0.054285765 0.12812862
000290 8c df 1f 3d c0 f6 8a 3d c0 39 aa 3d 9e 65 34 bd
       0.03903155 0.06785345 0.08311796 -0.044042222
0002a0 18 26 3a bd 17 47 28 3e de cc 25 3e 87 65 1f 3d
       -0.045446485 0.16433369 0.16191432 0.038915183
0002b0 fb 78 51 bd 7a aa 03 bd 37 2f 10 3e 77 2f 18 be
       -0.051140767 -0.032145 0.14080511 -0.14861856
0002c0 01 b6 07 bd fc 6f a8 3c 7c 20 15 3e cb 2e 19 be
       -0.033132557 0.02056121 0.14563173 -0.14959256
0002d0 e9 ab 2b 3e 54 48 a6 3e fa f7 41 bd de 22 a0 bd
       0.16764797 0.32477057 -0.04735563 -0.078191504
0002e0 de bd 7d bc 00 38 87 bc e6 8f b1 3d 10 51 1d be
       -0.015487162 -0.016506195 0.086700246 -0.15362954
0002f0 34 48 df bd 62 25 57 bd a6 3a d2 bd 77 6f 85 bd
       -0.109024435 -0.052525885 -0.102650926 -0.06515401
000300 3a cc 24 3e 71 db 20 3e ed 69 a9 bd b7 56 4e 3e
       0.16093531 0.1570871 -0.08272157 0.20150267
000310 53 3d 9c ba ec 30 79 bb a4 66 b6 bb 7b 4d 6e 3e
       -0.0011920132 -0.0038023544 -0.005566435 0.23271744
000320 17 fa 50 3d 2b 63 e4 bc d4 9d 5b be 2f 33 30 3e
       0.051019754 -0.027879318 -0.21446925 0.17207025
000330 3b 31 21 be 04 64 38 3a 3f ab 36 bd c9 bc e3 3d
       -0.15741436 0.00070339465 -0.044596907 0.11119992
000340 29 0d 35 bd 7b 8a 05 3e f1 57 e4 3d ef 38 19 3d
       -0.044202004 0.13041107 0.11149586 0.03740781
000350 88 29 f6 3b e6 c0 30 3e f0 f8 aa bd 73 4c a7 bd
       0.007512275 0.17261085 -0.08348262 -0.081688784
000360 7c 91 3a 3e 41 ee 40 bd 62 1c eb bd 91 7c 56 3e
       0.1821956 -0.047102217 -0.11480023 0.20945956
000370 ef f3 fe bc ca 33 bc bd ea 56 b4 3c 42 91 41 3e
       -0.031122176 -0.091895655 0.0220141 0.18903068
000380 d9 00 98 bc c0 5c 91 bd 97 23 f9 bc 55 6f 04 3e
       -0.018555092 -0.07097769 -0.030412478 0.12933095
000390 be 44 9d 3d 7a d2 8d 3d d4 2b ae bd 9e 9d 8c 3d
       0.07679127 0.06924911 -0.08504453 0.068660006
0003a0 b2 82 99 bc 13 dc 4c 3e 82 a8 bd bc d9 d2 33 bd
       -0.018739078 0.20005827 -0.02315164 -0.043902252
0003b0 83 08 1c 3e 88 89 dc bc 04 74 b5 3c 0e 5b ee bd
       0.15237622 -0.026921049 0.022150047 -0.11638461
0003c0 3e 2b c4 bd b2 8a 14 3e c3 0d 18 3e 22 2e 39 be
       -0.0957856 0.14506033 0.14849 -0.18084005
0003d0 5d b7 0a 3e 8b 1b c8 3e c6 c7 98 3c d5 c8 b3 bd
       0.1354651 0.39083514 0.018649947 -0.0877854
0003e0 43 77 7e 3e ed 16 25 3d 8f 93 f5 3d 7f b3 8c bd
       0.24850182 0.040305067 0.11991035 -0.06870174
0003f0 69 a9 92 3c 5c dc 89 bd 08 6c 57 be ba 3f f2 bd
       0.017903047 -0.06731483 -0.21037304 -0.11828561

fc.bias f4 [4]
000000 4f ad c1 bc 8f a7 d3 3b 7d d6 c3 bc 33 77 8e bd
       -0.02364221 0.0064591835 -0.023905987 -0.06956329
